Saved Weights/1D_gaussian_initial.pth (torch, 140470 bytes, 39 tensors)

initial_layer.W f4 [2, 50]
00000000: 9806 5e3d 5021 a2bd 6c0b 7abe 21f4 543e
00000010: 5680 2ebe 107b a33e d84a 863e 12bc a4bd
00000020: 84a4 8e3e 7080 6e3d c072 a03e d3ac 183e
00000030: 0166 c2bd 227e 7f3e 1466 4fbe 71c4 81bd
00000040: e98c 8f3e 851f 0c3e 6991 a3be 27ba 98bd
00000050: c753 81bd daf3 8c3e fc2c 77bd bece 8abe
00000060: 63a2 973d ef11 003e 4662 2e3e fd59 68be
00000070: cd99 da3d 887e 9b3e c6ab ddbd b5f3 1cbe
00000080: da8f 69be 55cd 80be cd71 4fbe 139c 71be
00000090: e2e8 01bd 265b 1ebe 756f 30be b1e4 7d3e
000000a0: 4d0a aa3d 6ded 2f3e 9bf7 8a3e afc3 bdbd
000000b0: 6be5 593d 4c1a 863e 5a03 23be c0ae 783e
000000c0: 8867 0d3e a370 adbe be58 8cbd f302 85be
000000d0: b5d5 f9ba ed1d 1bbe ae8b 553e 650b 77bd
000000e0: b9d5 54bc fbc8 81be f64d a4be 3d6b 953c
000000f0: ae31 513d 5cbc 9abe f428 313d 5358 753e
00000100: c31a 363d d982 31be 21a2 2abd d61d 243e
00000110: 775e ab3e e48f a3bd cb5b 943e 2e52 fb3d
00000120: 36ac 03be 708a 8b3e 5be3 2abd 817a 09be
00000130: c621 02be acc9 593e ab6f 383e 2f35 f93c
00000140: 1802 983e 3f32 30be 11b3 943e 91ec e3bd
00000150: cf5d 193e 5705 47be 17db 77bd 877e 9dbe
00000160: 8811 97be aeb6 293e aecf 77bd 2fc6 a8be
00000170: e8a0 11be 34c5 2abe 6884 1f3d 22ee b9bb
00000180: 69d6 4ebe 2fbc 40be c2d8 86be 659e 23be
0.054205507 -0.0791651 -0.2441842 0.20796253 -0.17041144 0.31929827 0.26228976 -0.08043684
0.2785989 0.058227956 0.31337547 0.14909677 -0.09492112 0.2495046 -0.20253783 -0.06336296
0.28037193 0.13683899 -0.31946877 -0.07457381 -0.063148074 0.27529794 -0.060345635 -0.27110857
0.0740402 0.12506841 0.17029676 -0.22690578 0.106738664 0.30369973 -0.10823779 -0.15327342
-0.22808781 -0.25156656 -0.20258255 -0.23594694 -0.031716235 -0.15464458 -0.17230017 0.2479427
0.08302746 0.17180414 0.27142033 -0.09265839 0.053197306 0.26191938 -0.15919247 0.24285412
0.13809025 -0.33874997 -0.06852864 -0.25978813 -0.0019060882 -0.15148135 0.20854065 -0.0603136
-0.012990409 -0.25348648 -0.3209073 0.018239612 0.05107277 -0.30221832 0.043251947 0.23959474
0.044459116 -0.1733507 -0.041658524 0.16027007 0.33470508 -0.07986429 0.28976282 0.12271534
-0.12858662 0.27254057 -0.04172073 -0.13425638 -0.12708196 0.21268338 0.18011348 0.030420868
0.29689097 -0.17206667 0.29042867 -0.11129106 0.14977191 -0.1943563 -0.060511675 -0.30760595
-0.29505563 0.16573593 -0.060500793 -0.32963702 -0.14221537 -0.1667679 0.03894463 -0.0056741396
-0.20198978 -0.18821786 -0.26337248 -0.15978391

initial_layer.b f4 [50]
00000000: 3891 87bb 9f6e edbb 2bcf c8bc 903b 1f3b
00000010: 1bf3 a8bc 4522 f1bb 7e82 303c 29d4 c33a
00000020: ec30 c03c e169 1a3c c88c 533c c03a 083c
00000030: 2204 53bb c041 833c 67a0 3b39 f9f2 47bb
00000040: 6ddf 8dbc fafb 38bc 4a86 a73c afc5 b4bb
00000050: 1d05 afbc f9db 363b eb6c 42bd 448f 473c
00000060: 139b 18bc 84bf 5e3a 0073 39bc 9bd7 5cbc
00000070: b579 943b 0ba7 cf3b af10 3cbb b542 39bc
00000080: c53c 3abc 5013 28bc cfd1 bcbb e0db 583a
00000090: 5ba5 46bb 49b3 93bc a8ac 6abc dad2 273c
000000a0: c355 91bb 8dc4 9f3c ce14 07bd cd1c 963b
000000b0: 1203 40bc 4b67 193c ce20 f5bb 12e6 ce39
000000c0: 9510 733c cd13 d33b
-0.0041371845 -0.007245853 -0.024512848 0.0024296977 -0.020623734 -0.0073588216 0.010773299 0.0014940548
0.023460828 0.009424658 0.012911983 0.008314788 -0.0032198508 0.016022563 0.00017893464 -0.0030509813
-0.017318452 -0.011290545 0.020449776 -0.00551673 -0.021364743 0.002790211 -0.047467154 0.012180153
-0.009314316 0.0008497166 -0.011318922 -0.013479139 0.00453111 0.0063370517 -0.0028696468 -0.011307408
-0.011367028 -0.010258511 -0.005762316 0.000827251 -0.0030310962 -0.018029826 -0.014323391 0.010243142
-0.0044352724 0.019502902 -0.032978825 0.00458107 -0.011719482 0.009363006 -0.0074807173 0.00039462798
0.014835496 0.0064415694

LSTMLayerList.0.Uz f4 [2, 50]
00000000: 1b26 863e 01a0 98be a2c4 f1bd 76a0 bc3d
00000010: 3e71 873e 6eb6 aa3d 452f 7ebe d20c 89be
00000020: a762 803e 8265 313e c706 2a3e af37 a3be
00000030: 02e1 c03d 1da1 063e 0233 a53e 7501 f43c
00000040: 8d4e 953e f9dc afbe 80aa 883e a5dd a03e
00000050: c748 a03e 7d73 903e dc68 61be cc8a a4bd
00000060: efd7 183e 2aba 8ebe f784 c6bb 7853 df3d
00000070: a1cf b93d c0a7 a5be 092f edbd 0bd2 b2be
00000080: 9e40 893e 848d a43e 0b9b 8bbe bb62 0d3e
00000090: af33 98be 0fc2 ef3d c528 2abe c0cd 37be
000000a0: 1196 093e b3fa 8f3e 3da8 6a3e ce1e 99bd
000000b0: a213 27be 0b83 3abe d444 89be 7fe5 9f3b
000000c0: f3ab 4dbe 8b84 7d3e 0920 3e3e 7349 5a3d
000000d0: f642 a8be 39f2 573e 743d 8b3d c490 c1bc
000000e0: f123 313e 2110 9bbe 2cfb 8fbe 78fa a8be
000000f0: aaad 77be ed1a 103e e9da 193e d2bc 103e
00000100: e8e8 363e d45a 7fbd a7c4 1fbe 43f1 763e
00000110: 4fd1 0b3e 6bc6 e1bd 8dc1 9e3e dee2 1f3e
00000120: 531b ecbd 4d8a 38be 27c5 8bbe 15e9 4c3e
00000130: fa8f c43d d384 81be b06f 0c3e 92f1 16be
00000140: d576 b1be 7477 06be 37e0 573e 90b7 0bbe
00000150: ec26 f73b 0dee 0dbe d3a8 22be 677b 873d
00000160: 9050 56bd e69a 333e 96d6 89be 35a0 e8bc
00000170: 3767 3ebe 3403 6ebd a585 b33d b636 433e
00000180: 2b76 a4be d220 e93d ef66 433e 4df9 32bc
0.26200947 -0.29809573 -0.11805083 0.09210293 0.26453584 0.08335577 -0.2482272 -0.26767594
0.25075266 0.17323878 0.16604148 -0.3187842 0.09417917 0.13147397 0.32265478 0.029785851
0.29161492 -0.34348276 0.2669258 0.314191 0.31305525 0.2821311 -0.22012657 -0.08034286
0.14926122 -0.27876407 -0.006058331 0.10904592 0.09072805 -0.32354546 -0.11581237 -0.34925875
0.26807112 0.32139218 -0.27266726 0.13807194 -0.2972693 0.117069356 -0.16617115 -0.17949581
0.13436152 0.28120956 0.2291574 -0.07476579 -0.16316083 -0.18214051 -0.26810324 0.004879653
-0.20085125 0.24757592 0.18566908 0.053292703 -0.32863587 0.21088494 0.06798831 -0.0236286
0.17298867 -0.30285743 -0.28121316 -0.33003592 -0.24187341 0.14072771 0.15024914 0.14134529
0.17862284 -0.06234248 -0.1560236 0.24115472 0.13654064 -0.11024173 0.31007043 0.15613887
-0.11528649 -0.18021508 -0.27298853 0.20010789 0.09597774 -0.2529665 0.1371448 -0.1474059
-0.34660974 -0.13131505 0.21081625 -0.13644242 0.0075424816 -0.1386034 -0.15884714 0.06615334
-0.052322924 0.17539558 -0.2692153 -0.028396705 -0.18594061 -0.058108523 0.08765725 0.1906384
-0.32121405 0.11383213 0.19082235 -0.010923696

LSTMLayerList.0.Ug f4 [2, 50]
00000000: 9f16 383e 4a44 143e ef70 05be cb8a 84be
00000010: 278b 5abe e802 a53d 92b5 a33d 0275 ba3c
00000020: 3216 eebd bdb0 afbe 1c0b cc3c ab36 8a3e
00000030: 1e0e c7bb b064 38bb 1178 083e d06c fabd
00000040: 1a21 8dbe bd2a 0abe 4fdb 9cbe 52b5 af3e
00000050: 173f 87be 1d9f b83d 10f1 91be eec7 923e
00000060: dab4 8b3e ed41 8fbe e71b d9bd c372 fe3d
00000070: cc93 e9bd 6658 b9bd 3870 87be 1fde 38be
00000080: adb4 253d 307e 9a3d 2496 a93e 512c 9c3e
00000090: c31e e2bd a664 873e 6fea 4bbb a58c 393d
000000a0: 0e76 963e 85eb 92be dbea 3f3d c2e5 88be
000000b0: 9366 533d c5a0 263d 3156 cebd a78d e7bd
000000c0: 129b 24be 484b 34be c10f 093e 0c15 793e
000000d0: 77ec 9a3e 1b11 44be fffd 883e 6446 e4bd
000000e0: 2e98 74be 1d1e 67be 2071 3abe 1034 5ebe
000000f0: 5301 9e3e edc2 8bbe a2dc 823e 951c abbe
00000100: e9b0 6fbc 5948 34be d251 9ebe e368 863e
00000110: 0b60 803c 6e9b 303d 65db 323e dbce 253e
00000120: 0b8d a3be 5d4b 89be e556 da3d c2ef 0c3e
00000130: 61c5 593e f975 17be 9a5c 693c 72d6 e4bc
00000140: 9643 62bd 6e4f 97be 98e1 ab3e df86 3a3d
00000150: 0d5e 30be 4cc5 073e c87a 84be dc34 95be
00000160: d6e5 7e3e 70de 143e e3d0 3d3e be26 56be
00000170: 7441 0bbe 9f5c 393e 40a4 043d cb58 013e
00000180: 53f0 2bbe 88a9 bcbe f99c 2fbe 4181 f5bc
0.1797738 0.14479175 -0.13031362 -0.2588714 -0.21342145 0.08057195 0.07993616 0.022760872
-0.11625327 -0.34314528 0.024907641 0.26994833 -0.006074681 -0.0028136186 0.13327052 -0.122277856
-0.27564317 -0.13492866 -0.3063607 0.34318024 -0.2641532 0.090147234 -0.2850423 0.2866816
0.27286416 -0.27979985 -0.10601025 0.12424233 -0.11405143 -0.09050064 -0.26452804 -0.18053482
0.04045551 0.075435996 0.3312236 0.3050256 -0.110410236 0.26443976 -0.0031115075 0.045300145
0.29386944 -0.28695312 0.046854835 -0.2673779 0.051611494 0.040680666 -0.100750335 -0.11306315
-0.1607478 -0.17606843 0.13384916 0.24324435 0.30258533 -0.1914715 0.26756284 -0.111462384
-0.23886177 -0.22570081 -0.18207216 -0.21699548 0.30860385 -0.27297154 0.25558954 -0.33420244
-0.014629581 -0.17605723 -0.309218 0.26251897 0.015670797 0.04311698 0.17466505 0.1619219
-0.31943545 -0.2681531 0.10661105 0.13763335 0.212667 -0.14791097 0.014243269 -0.027934287
-0.055240236 -0.29552788 0.33570552 0.04553878 -0.17223378 0.13258857 -0.25874925 -0.2914189
0.24892363 0.14537978 0.18536715 -0.20913216 -0.13599187 0.18101738 0.032383204 0.12631528
-0.16790895 -0.36848092 -0.17149724 -0.02996886

LSTMLayerList.0.Ur f4 [2, 50]
00000000: 227e 9f3e 85e5 8a3e 21b9 8dbc e4a5 953e
00000010: 87b4 743e ffcf 933e 288d a8be c8b0 9cbe
00000020: 7ca2 a9bd eb89 94be 148e 10be 6460 853e
00000030: 0ed0 14be 9040 d0bd 2c1c b2bd 02ca 0bbd
00000040: 8952 a7be e20c 6dbe 6707 5dbe 46c8 29bd
00000050: 6da9 8d3e 443a 98bd 4251 6abb e4cd f23d
00000060: 6926 5ebc 2526 82bd b9ed 26be 6d6e 8e3e
00000070: fe31 1b3e 444b 7fbe 35bf 18be 113c c3bd
00000080: 8b6f e6bd 1a45 9d3d 5252 2a3d 6c89 b7be
00000090: 11e2 353e 8b0e 743d c3b8 d73d 09de 58be
000000a0: dae2 c73d cfef 903e c369 80bc ddbf 9dbb
000000b0: a6e6 113c 5b4a 813e 0289 993e 3b2b 3cbe
000000c0: 4f1f a3be 90a3 79be d31b 84be 8c76 fdbc
000000d0: 8ff3 c13d 6d1d c2bd 2e42 00be 28c2 7cbe
000000e0: 690c 7a3e 017c 88bc cdcd f3bc 7294 1b3e
000000f0: 3426 f43c 1880 b13e 84a3 26be 6813 dabd
00000100: 5dee 29bc 884b 8fbe b88f 6a3e cea6 1e3e
00000110: 83cf 73be b1dd c23e 9c9c 6a3d e182 243e
00000120: af8d 34be 3682 823e 08ae 92be 33df 943e
00000130: 4c0a 78bd 09c9 39bd 41d1 97bd 3100 b13d
00000140: 48cc 373d d9ce 9ebe a815 efbd 2390 a93e
00000150: d558 b83d 6ef2 1cbd 5727 873e 2e34 c03d
00000160: f76c 24be 5d24 d43d 9e51 cebd d3e7 aabe
00000170: d676 a9bd cfa0 21be 3125 0ebe bdcf a03e
00000180: 4871 0dbe 9f7a 1ebe 70a3 2abe 7495 0dbe
0.3115092 0.27128235 -0.01730019 0.29228127 0.2389699 0.28869626 -0.32920194 -0.30603623
-0.082829446 -0.29011473 -0.14116699 0.26050103 -0.14532492 -0.10168564 -0.086967796 -0.034128197
-0.32680157 -0.23149446 -0.21584855 -0.04145076 0.27668324 -0.07432988 -0.0035754 0.11855677
-0.013558962 -0.06354932 -0.16301621 0.27818623 0.1515579 -0.24931055 -0.1491669 -0.09532941
-0.11251744 0.07679196 0.041582413 -0.35847032 0.17762019 0.05958418 0.105332874 -0.2117845
0.097600654 0.2830796 -0.015675431 -0.0048141317 0.0089050885 0.2525204 0.2998734 -0.18375866
-0.31859824 -0.243788 -0.25802478 -0.030940317 0.09470283 -0.09478269 -0.12525246 -0.2468344
0.24418797 -0.016660692 -0.02976122 0.15193346 0.029803373 0.3466804 -0.16273314 -0.10648233
-0.010371772 -0.27987313 0.22906387 0.15493318 -0.23809628 0.38059762 0.05727826 0.16065551
-0.17632173 0.25489968 -0.286484 0.29076537 -0.060556695 -0.045357738 -0.07412959 0.08642615
0.044872552 -0.31017187 -0.116740525 0.3311778 0.09001318 -0.038317136 0.263972 0.093849525
-0.16057192 0.10358498 -0.10074161 -0.33379993 -0.08274619 -0.15784 -0.13881375 0.31408492
-0.13812745 -0.15476464 -0.16663909 -0.13826543

LSTMLayerList.0.Uh f4 [2, 50]
00000000: e1fa f13c 4b01 29bc df29 62be b5ad 933e
00000010: 4c6f 113e ab98 25be d140 2bbe 5ae0 303e
00000020: 3fcf cabc e3c0 7dbe d060 3bbe 6015 9fbe
00000030: ed1e ef3c 8f74 a23e f731 93bd bda5 3c3e
00000040: ffad 02bd 298b 3c3e 714a 4f3e 7d5a 83be
00000050: ef50 94be 5bbc 3e3e 7e46 513e 0443 92bd
00000060: d1af 3abe a46f 8ebe 9fce 72be 72dc 913e
00000070: c461 dfbc cbc1 1bbc f625 993e 2fab 5fbe
00000080: c4af a5be cbe9 fcbd a145 993e 67a9 193c
00000090: 979a 87be ddbe ef3d 656c 18be 25fb 573b
000000a0: 3781 4fbe 6106 0e3e 13b2 75be 7158 0fbe
000000b0: d023 f6bc cce7 c6bd f124 303c 1d7b 8a3e
000000c0: 9352 1fbe ae61 80bc f510 b1bd 184b a0be
000000d0: 435d 953e 4b15 723e 3634 653e ef22 04bd
000000e0: 2408 4bbe a71b 9bbe 3bde a0be c872 923e
000000f0: d9b6 013d b5e4 b73d fc90 0abe bef0 6fbe
00000100: ee0a 9cbe fe07 883e 13bc d63a c7ee 833e
00000110: 375b f73d c4b1 2d3e 65fd 223e 4e73 95be
00000120: 8f0d 863b 9907 a9be c135 6cbd 0336 89be
00000130: 6402 ddbc 4285 e63d dfc7 8d3e 38de a6be
00000140: bc3c 41be 9036 8d3e 80dd 6a3e cd33 a93e
00000150: e4de e93d b50d f8bd 9ee7 5d3e 6756 8e3e
00000160: bede 55be 941c 85be c195 8f3e 83a9 4b3e
00000170: c568 3fbe 8a23 a7be c017 9e3e 0d3e 10bd
00000180: f1c2 3abe 2afc 7c3d a594 02be 2ad9 41be
0.029538574 -0.01031525 -0.22086285 0.28843465 0.14202613 -0.1617152 -0.16723944 0.17273083
-0.024757026 -0.24780612 -0.1829865 -0.31070995 0.029189551 0.31729552 -0.071872644 0.18422599
-0.031904217 0.1841246 0.20243241 -0.25654975 -0.28967997 0.1862654 0.20437047 -0.071416885
-0.18231131 -0.2781955 -0.23711632 0.284885 -0.027268298 -0.009506653 0.29911774 -0.21842645
-0.3236066 -0.1234928 0.29935935 0.009378768 -0.2648513 0.11706326 -0.14885099 0.003295609
-0.20264135 0.13869621 -0.23993711 -0.13998581 -0.030046374 -0.097121805 0.010750995 0.27047053
-0.15558843 -0.015671577 -0.086458124 -0.31307292 0.29172716 0.23640935 0.22383198 -0.032259878
-0.19827324 -0.30294535 -0.31419548 0.28603196 0.031668518 0.08979169 -0.1353187 -0.2343168
-0.3047709 0.26568598 0.0016382955 0.2576811 0.12077945 0.16962343 0.15916975 -0.29189533
0.004090972 -0.3301361 -0.05766845 -0.2679902 -0.026978679 0.11255886 0.27691552 -0.32591414
-0.18870825 0.2758069 0.22936058 0.33047333 0.11419466 -0.121119894 0.21670386 0.27800295
-0.2088575 -0.25998366 0.2804394 0.19888882 -0.1869231 -0.32644302 0.30877495 -0.035215426
-0.18238427 0.06176392 -0.12752016 -0.18930498

LSTMLayerList.0.Wz f4 [50, 50]
00000000: 5ec2 5dbe fbe2 1f3d abaa 4ebe 5e34 21be
00000010: b655 41bd a741 62be 7a5d ef3d 4bd5 1d3d
00000020: 4cd8 66be f89d 273c 4641 28be 9990 45be
00000030: abab b23d 1fe7 233e 5629 07bc a920 48be
00000040: 8c5f e13d aaa0 1abe d845 34bd 7fbc d6bc
00000050: 7f8b e23c 801a 09be 3b28 8abd b43d 7b3e
00000060: 5dcf 3a3e fbbb 86be 9f35 c73c 670e 6bbe
00000070: 2b1b 7f3e 9ff8 3cbe 1201 61be b024 143e
00000080: 3576 1abe 843d 133e fa8c 1c3e e56a 293e
00000090: 86ef 1f3d 36d4 babd 0c26 ffbd 78bf fa3d
000000a0: 0ee6 3abe 2f8b 0fbd fb52 4c3e d72d 783e
000000b0: 01f7 4f3e 96e2 6bbe 2065 c6bd 277e 003e
000000c0: 71a5 563d c17e 22bb be6e 2a3e 9e3a 033d
000000d0: 7d50 63be 9b80 f0bd 07d7 343e 0eff 403d
000000e0: 00ac 6bbe 05fb c83d d677 5d3e 1f59 303e
000000f0: 2e3c 693e 8da0 40be f7a3 9fbc 2cc6 cc3d
00000100: be6b 97bd 44f6 d2bc cfa6 fe3d 9a74 b1bd
00000110: e45a 1ebe 575d e2bd 21b3 083d 3cd5 323e
00000120: e79c dfbd 02d3 7b3e 9dde 8d3b 5694 68be
00000130: 1fe9 dcbd edba 93bd 6ea4 fdba f3bf a73c
00000140: b116 3bbe 5554 1e3e 7721 6e3d 25a4 b23c
00000150: 5472 65be d2c5 9ebd 6777 b2bd 1850 09be
00000160: 542f 37be cd17 42be f04a 683e 167d edbd
00000170: 8e38 703d 1ec7 2e3c 0e92 1f3e f51e 84be
00000180: 8ea1 863d 8e69 123e 294d 793e 6a95 823e
00000190: d5a2 dc3d 9bab 1b3e ec80 313e a298 e5bd
000001a0: d02b 3a3e 1140 883d d3f9 76bd b7bf 4cbe
000001b0: 1614 d2bd b88e 70be b691 38bd 88c7 663e
000001c0: d007 5cbe aa3f 62be d84e 2ebb 3fb9 33be
000001d0: 8966 123d e490 a2bb 28b5 7d3d 71f3 0bba
000001e0: b263 213e f042 be3c 4656 5c3e 8fdf 37bd
000001f0: 82e8 adbd a069 0ebe 338a 633e 5e74 f03d
00000200: 62c4 0e3d 6329 2cbe 9cc4 cd3d 7d1a 683e
00000210: 4800 02be a2c7 40be c734 003e 50d1 0dbe
00000220: a6c7 bd3d 26f3 153e 8407 5abe 6deb 1b3e
00000230: 0d57 233e fd6b 44be 5056 2fbe 0775 fc3d
00000240: 5e41 383e 1041 6bbe 6e73 4abe 066e e3bd
00000250: 15cf 07bc c0f0 90bc 5ab4 2c3e ad16 003e
00000260: 468c 6cbc a9c4 01be 82c6 513e a25a 983d
00000270: 9303 353e bbe6 20bd 3fca 653e 9e02 1ebd
00000280: 1b85 f8bd d163 0c3e 2126 2ebd ae3e 0c3e
00000290: 785d 90bd db66 543d ac59 c6bd c625 8fbd
000002a0: 02f1 9fbd 6e15 173d 7b60 803d d537 6bbe
000002b0: 954a 173e bce9 f33d 7015 02be 38c3 a73d
000002c0: 14f6 203e 62f9 0fbc a991 44be e816 493e
000002d0: 19e0 1a3e ad15 5d3e 2fbd 32be 9333 a8bd
000002e0: 3c79 e93d 1f95 08be 6995 a3bd 14e4 bbbc
000002f0: 91bc 263e 6eea 0cbd 0892 5e3e 664b b4bd
00000300: a8c8 293d c274 eabd 3311 1e3e a291 13be
00000310: 06b3 b8bb de8b 343e f154 413e 0f29 023d
00000320: db6b 3fbe bd9f 503e 1722 3bbe b45c 013e
00000330: 41bb 2d3e 36b7 f43d a22d 2fbe db7c f53d
00000340: 4927 2fbe 1017 61be f9a8 a03d 5a52 0bbd
00000350: 90fc 30be 3ad7 f83d 6c69 3e3d 0298 533e
00000360: a6eb 423e 3525 78be 81a5 a13d 5052 62be
00000370: 518b 8abd 474b 623e 3fbc e73c aa46 3a3e
00000380: 5acd 8cbd e2f3 73bd b732 5cbe f994 263e
00000390: a7b7 c6bd 31c0 5cbe d30c 5a3e 5733 41be
000003a0: a40b 23be c3c2 72be 4b20 99bd 6961 87bd
000003b0: b815 073e 7726 d23d 4050 d73d 459c 97ba
000003c0: 9769 0f3e 1054 39be 6980 f43d fb01 53be
000003d0: 9e6e 23bb 4aa4 c23d ea07 37be 9a77 b7bd
000003e0: 7fb0 983d ab32 043e 25e6 373e 1305 61be
000003f0: 4b8a 303e 3f98 43be eaae 2dbe 2468 03bc
-0.21656176 0.039034825 -0.20182292 -0.15742633 -0.04720088 -0.22095357 0.11687751 0.03853349
-0.22543448 0.010230534 -0.1643115 -0.19293441 0.08724149 0.16006134 -0.008249601 -0.19543709
0.11004552 -0.15100351 -0.04401192 -0.026212929 0.027654408 -0.13389015 -0.067459546 0.24535257
0.18243165 -0.26315293 0.02431756 -0.22954713 0.24912708 -0.18454216 -0.21973065 0.1446712
-0.15084155 0.14378935 0.15288153 0.16544683 0.039046787 -0.09122507 -0.12458429 0.12243551
-0.18251821 -0.035044845 0.1995353 0.24236237 0.20309068 -0.23035654 -0.09687257 0.12548123
0.05240387 -0.002479479 0.16643807 0.032038324 -0.22198673 -0.117432795 0.17660151 0.04711824
-0.23014832 0.09813503 0.21627745 0.17221497 0.22776863 -0.18811245 -0.019487364 0.09998736
-0.07393597 -0.025752194 0.1243416 -0.08664818 -0.1546436 -0.110529594 0.033373956 0.17464155
-0.109185986 0.24592212 0.004329516 -0.22712836 -0.10786652 -0.07213388 -0.0019351372 0.02047727
-0.18270375 0.15461858 0.058137383 0.021806786 -0.22406894 -0.07752575 -0.087141804 -0.1340946
-0.17889148 -0.18954392 0.22684836 -0.11596124 0.058647685 0.01066759 0.15583059 -0.25804868
0.06573783 0.14298078 0.2434584 0.2550462 0.10773245 0.15202181 0.17334336 -0.11210753
0.18180776 0.06652845 -0.060296845 -0.19995008 -0.10257737 -0.23491943 -0.045060836 0.22537053
-0.21487355 -0.22094598 -0.0026597288 -0.17551135 0.035742316 -0.00496112 0.061940342 -0.0005338705
0.15760687 0.023225278 0.21517286 -0.044890936 -0.08491613 -0.1390748 0.22220688 0.11740945
0.034855254 -0.16812663 0.10047266 0.22666354 -0.1269542 -0.18826154 0.12520133 -0.13849378
0.092665955 0.14643535 -0.2129193 0.15226527 0.15951176 -0.1918182 -0.1712277 0.12327009
0.17993686 -0.22974038 -0.19770595 -0.1110497 -0.008289118 -0.017692924 0.16865674 0.1250865
-0.014437741 -0.12672676 0.20485881 0.07439162 0.17677145 -0.03928254 0.22440432 -0.038576715
-0.12134763 0.13709952 -0.04251683 0.13695785 -0.07049078 0.051855903 -0.09685072 -0.069896266
-0.078096405 0.03688567 0.06268402 -0.22970517 0.14774545 0.11909816 -0.1270349 0.08191532
0.15718871 -0.008787485 -0.1919619 0.19637644 0.15124549 0.215903 -0.1745498 -0.08212962
0.11400077 -0.13338135 -0.07987482 -0.022935905 0.1628287 -0.034403257 0.21735394 -0.088034436
0.041451126 -0.11448051 0.15436248 -0.14411023 -0.0056365756 0.1763148 0.18880059 0.031777438
-0.18693487 0.20373435 -0.18274723 0.1263302 0.16965963 0.11949007 -0.17107251 0.11986705
-0.1710483 -0.21981454 0.07844729 -0.034014083 -0.17283845 0.12150426 0.046487257 0.20663455
0.19035205 -0.24232943 0.078928955 -0.22101712 -0.06764854 0.22099029 0.028288005 0.18191019
-0.06875105 -0.059558757 -0.21503721 0.16267766 -0.09702998 -0.2155769 0.21293955 -0.18867241
-0.1592241 -0.23707108 -0.074768625 -0.066103764 0.13191879 0.10261243 0.10513353 -0.0011566958
0.14005123 -0.18098474 0.11938555 -0.20606224 -0.002493776 0.09503992 -0.17874113 -0.08958359
0.07455539 0.12909953 0.17958887 -0.21974592 0.17240255 -0.19101046 -0.16961256 -0.0080204345

LSTMLayerList.0.Wg f4 [50, 50]
00000000: 3f8c 5c3d d39c 873d c1cb 783d ced2 793e
00000010: 8b71 3b3e 34ed 13bd b61c c9bd 00df ea3d
00000020: e4a1 733c a0ba 07bd 7973 f63d 2f85 153d
00000030: 7a61 f43d d4db 323e c206 1fbe 1562 ac3d
00000040: 0ee7 523d 9393 573d 532a 093c 5ad6 543e
00000050: bf7e 283e f094 4abe be48 d3bd aab6 513e
00000060: 7ea7 35bc d205 9c3d a826 9bbd 9f1e 5abe
00000070: dd1e 53bd 8b77 d2bc 659c be3d a36b 583e
00000080: 0fca 193e 7e74 68be 01b8 0b3d fe97 6fbd
00000090: d23d 2d3d 685e f93d 4688 bf3d 050d 62be
000000a0: 8199 873d c926 393e a23f 743e 4d90 4e3d
000000b0: 4cca 72bc 0429 cf3d cf71 7dbe e2e1 193e
000000c0: 8683 6d3d dd8b af3c a932 e93c 3ae7 87be
000000d0: b5e5 523e e18c 5ebe 1ad4 4fbe 2e6a 9abb
000000e0: c0b4 8fbd f0b6 53be dd4a 5bbe 2550 06be
000000f0: bec4 f83d 15ab dfbd cdd1 fd3d eb25 543e
00000100: 456c 18be a1d9 bebd a6dc 1dbd b545 6d3e
00000110: a8e7 77be fe24 193d 89dc d2bd 6665 1cbe
00000120: 7bfe 4d3e 8bf8 b93d 51b8 8c3d 5ddc 11be
00000130: d15b 1fbe 936f 863e 6c63 8f3a 2165 2d3e
00000140: 28fc 14be 75f4 afbd c1c6 c13d ee7a 2dbd
00000150: f68a febd 1791 44be 6bce 8fbd 884e 373e
00000160: 1263 7a3e 4047 7dbc c6c4 05be fa8a 6c3e
00000170: d105 05be 435e 063e 2082 e9bc 5f40 39be
00000180: a973 3cbe a753 2bbe 4415 05be 69bf 613e
00000190: 7a65 3fbe 512f ba3d 042f 31be 35be 043d
000001a0: eeb4 c7bd 0c4e 1fbe a8a6 66bd 2fe5 bd3d
000001b0: 6404 0e3e 9eeb dfbd e3bb 833e 5cf1 713e
000001c0: b407 4f3e f31f 5dbe 3096 ce3d 4db9 ae3d
000001d0: f0b5 5e3e 20c3 0e3c 0d36 21be 5d9d 8abb
000001e0: 788b 713e e799 1e3e f300 04be 845e e33b
000001f0: 5a7d 283d d7dc 3ebe 2b6b d1bd 9bf2 58be
00000200: 57f1 80bd 19c1 5a3e d07f 47be dd5b 32be
00000210: a4e7 783e f78a d3bd efbd 1cbe e6b0 a2bd
00000220: a220 323e 8199 f1bd 2526 3bbd d2da 10be
00000230: c1c5 813d 433c f63d 6fb1 4d3d 7bb6 563d
00000240: ff44 c4bc 6648 4abe 9b52 9e3d acd6 f3bd
00000250: 5549 55be edbf 61be d6f6 3d3e 5c85 09be
00000260: 6b81 5abe 08d2 febd 76b3 fe3d a2ba 68be
00000270: 2bca 57be 9621 14be acf7 e13d 8fc2 613e
00000280: 7d19 90bd ac87 d2bd cc4d 0abd b6b5 54be
00000290: 30a2 293e 3282 643e a502 8f3d 3de3 c83d
000002a0: d82b 35be 1c0d 1dbd a129 d63d cb98 a4bd
000002b0: b123 53bd 3311 44be d687 6b3d e36e 023e
000002c0: a05c d63d 9f25 4ebe b53c 38be 3165 1bbd
000002d0: ba5f 143e 5bd0 5e3e b7f9 513e 46bf 283e
000002e0: 5daf 0dbd a4e5 6a3e ceea 043b 01d8 753e
000002f0: dff5 26be 8d65 003d 4691 a93d 7a3f 39bc
00000300: e856 5ebc 9bc1 2fbe fba4 c83d 2e66 40be
00000310: 7dda 74be 664a 293e e61b 90bd 311f d23d
00000320: a2b9 7abe 23e4 0d3e 127a 34be 9ec5 3abe
00000330: 92ec 923d 181f ec3d a950 503e 668f 07be
00000340: eb28 6c3e e6bb 44be 4d4f fdbd 69fd 9d39
00000350: 0802 3b3e 3b2b 2abd f015 033e 2147 cb3d
00000360: 6359 053e 40ff acbd 5684 ce3d d4ad 70be
00000370: aada 0d3e 3f91 f43d 5118 ecbd 8346 a4bb
00000380: d428 09be 7479 24be 1e96 1ebd 13a1 173d
00000390: e7fc 0f3d 9be7 cd3c 8dc7 4ebd e02f 2fbe
000003a0: 990e b03d 1a54 09bd 5e1d 46be b0cc ae3d
000003b0: 35a7 b83d 93e3 733e 4fba ae3d 9e21 1f3e
000003c0: e1bf 9a3d 3a6a 2c3e 6105 f33c 1b51 9a3d
000003d0: d4c7 553e 432e 77be 26ce 09be 11a0 67be
000003e0: dc60 09be 7bf3 50be 1920 40be 1393 d63d
000003f0: 20e3 473e 83d0 4b3e 3bea 2dbe e454 5dbe
0.053844687 0.06621709 0.06074119 0.24396822 0.18305032 -0.036114886 -0.09819929 0.11468315
0.014870141 -0.033136964 0.120337434 0.036503967 0.11932655 0.1746667 -0.15529922 0.08417145
0.051489882 0.052630972 0.008371907 0.20784894 0.164546 -0.19783378 -0.10316609 0.20479837
-0.0110872965 0.07618298 -0.075757325 -0.21300744 -0.051543105 -0.025691768 0.09307174 0.2113481
0.15018485 -0.22700688 0.034111027 -0.05849456 0.042295285 0.1217621 0.09352164 -0.22075279
0.066210754 0.18081202 0.23852399 0.050430585 -0.014818739 0.10115245 -0.24750446 0.15027574
0.05798676 0.021428997 0.02846654 -0.265436 0.20595439 -0.21733429 -0.20295754 -0.0047123646
-0.07016897 -0.20675254 -0.21415277 -0.1311651 0.121469006 -0.10921303 0.12393532 0.2071759
-0.14885052 -0.09318853 -0.038540505 0.23171122 -0.24209464 0.037388794 -0.1029597 -0.15273055
0.20116608 0.09080609 0.06871093 -0.14244218 -0.15562369 0.26257 0.0010939664 0.16933109
-0.14549315 -0.08591548 0.094617374 -0.042353563 -0.124288484 -0.19195972 -0.07021793 0.17901051
0.24451855 -0.015458882 -0.13063344 0.2309989 -0.129905 0.13121895 -0.028504431 -0.18090962
-0.18403496 -0.1673113 -0.12996393 0.22045673 -0.18691054 0.09091056 -0.17303091 0.032407958
-0.097513065 -0.15557116 -0.05631128 0.09272229 0.13868862 -0.10933612 0.25729284 0.23627228
0.20217782 -0.21594219 0.1008724 0.08531437 0.21749091 0.008713514 -0.15743275 -0.004230185
0.2358836 0.15488397 -0.12890987 0.0069387574 0.04113517 -0.18638931 -0.10225519 -0.21186297
-0.06296032 0.21362723 -0.1948235 -0.17417856 0.24307114 -0.1032924 -0.15306829 -0.07943897
0.17395261 -0.11796857 -0.045690674 -0.14145973 0.06336547 0.12023213 0.050218042 0.05242012
-0.023958681 -0.1975418 0.077305995 -0.1190618 -0.20828755 -0.2204587 0.18551192 -0.13429779
-0.21338432 -0.12442404 0.12436573 -0.22727445 -0.21073215 -0.14465937 0.11033568 0.22046874
-0.070361115 -0.102797836 -0.0337656 -0.20772442 0.16565776 0.2231529 0.06982926 0.09808967
-0.17692506 -0.03834258 0.10457159 -0.080369554 -0.05154771 -0.19147186 0.05750259 0.12737612
0.104668856 -0.20131539 -0.17991908 -0.0379383 0.14489642 0.21759169 0.20505415 0.16479215
-0.034591068 0.22939163 0.0020281556 0.2400818 -0.1630473 0.031346846 0.08279662 -0.011306638
-0.013570525 -0.17163698 0.097970925 -0.18788978 -0.23911472 0.16532287 -0.07036571 0.102598555
-0.24484876 0.13856559 -0.17624691 -0.18239447 0.071740285 0.11529368 0.2034327 -0.13238296
0.23062484 -0.19212303 -0.12368641 0.0003013418 0.18262494 -0.041545134 0.12801337 0.09925676
0.1302238 -0.084471226 0.10083835 -0.2350381 0.13852945 0.11941766 -0.115280755 -0.0050132885
-0.13394481 -0.16061956 -0.03871738 0.037018847 0.035153296 0.025134852 -0.050483275 -0.17108107
0.08596534 -0.03352747 -0.1934714 0.08535135 0.09016267 0.23817281 0.08531629 0.15540168
0.07556129 0.16837397 0.02966565 0.07535001 0.2087701 -0.24138741 -0.13457546 -0.22619654
-0.13415855 -0.2040538 -0.18762244 0.10477271 0.19520235 0.1990376 -0.16983883 -0.21614414

LSTMLayerList.0.Wr f4 [50, 50]
00000000: 4ab6 1cbe 3d35 433e 363a 5cbe 6b9f 1c3e
00000010: 3822 11bd 54d5 bdbd feeb 6c3b c469 7c3e
00000020: e688 63be 739f 7f3d 79a8 5cbe 8217 6b3d
00000030: 4f80 91bd e183 06be c34b 543e df28 a33c
00000040: eab0 063e 14ab d13a 2598 0dbe 4782 ec3b
00000050: d175 5a3d 7a53 d23d 43f5 8a3d 4ed2 1abe
00000060: dd93 dcbc 847e a53c ccc3 61be 76ff 653e
00000070: 16ad 4abe f2e9 6e3e 0a42 7bbd 97c8 573d
00000080: e271 583e 977f 983d 6c67 fd3c 177b 5b3e
00000090: 4d7b cb3c de99 1f3d de9c 43be a11a 26be
000000a0: 2e30 2a3d d7cc 08be 12c1 853d 7bf8 a83d
000000b0: 0d06 dfbd 271b 30be 9aaf 803e 2ec9 af3d
000000c0: 1e06 2abd 45bb 02be fbcb f4bd cf5e 8dbd
000000d0: cb02 82bd 0391 31be 23cb c3ba 60ce 77be
000000e0: 8394 debd e7c9 4abe 2a96 083e cebe d23d
000000f0: fd03 bc3c 7fa7 27be 88d3 4a3e 667a ce3d
00000100: 2eb4 873e 145c 29be d332 c83a 44d9 9e3d
00000110: 72b2 63be bd31 0abe d487 8b3d 4bb8 3bbc
00000120: b256 6ebc 85ad 093e df20 1a3e 23e0 983d
00000130: b017 7fbe a2da c63d c33e a8bb 8dbb 073d
00000140: 2afd d1bc ffab a9bd d83d e43d 4854 5fbd
00000150: eff4 cbbd 43ba 3ebe 193a b63d 0508 5839
00000160: 08e6 413e f52e 46be ecbf 73bc 5814 633d
00000170: b5c5 2d3e f575 a2bd 0aeb d7bd c301 ca3b
00000180: da87 bdbd 613c 0e3e c95e 4a3e afc0 003e
00000190: eccf 693d 31b5 183e a102 983b 8458 fa3d
000001a0: 187f 313e e4c3 31be e4a0 543e 6650 743e
000001b0: 59fe 293e 24fc 053c 353a 46be 7504 45be
000001c0: c0bf 52bd c869 793e 6516 2abd ebf9 18be
000001d0: 3c4e 9abd 9585 9a3d 29a9 02be f835 873d
000001e0: f272 503e 9b8f 153e a5c2 f53d 0664 43be
000001f0: 1630 2d3e b674 143b 06c6 8639 6c9a a2bd
00000200: f188 133e e861 2fbe 4188 413e ef67 f6bd
00000210: 3a58 2fbd ae9a 743d 057e 653e b6df f8bb
00000220: 6c47 81be 0ad7 943d 4cd9 11be dff7 ba3c
00000230: d277 823d fc5f 033e 49e2 91bb 12e9 213e
00000240: 312a e6bd 4cd3 e73d ea36 7d3e 1525 453e
00000250: 8662 f2bd c0ee f9bd 9559 cabd 6449 4d3c
00000260: 4b24 cb3d f581 513e 2ad3 f53d 4474 2f3e
00000270: b6df 323e 8c6a 03be 57dd b63d cd71 50be
00000280: 2475 533e 161b b33d 887e 8fbd 46f0 5f3e
00000290: 65c3 3abe 7627 1cbe f9d1 003e f33f a13d
000002a0: a7d8 d93d 4d00 5a3e bb05 7d3c 472e 693e
000002b0: a152 873e b470 713e d8a8 b63d a995 82be
000002c0: ae79 e53d c5b8 20be a08f 763e 723e e23d
000002d0: 7896 203e 00b1 4cbe bc56 73be 3091 0f3e
000002e0: 3766 353e 152c 323d d61f 4a3e a3a8 a43c
000002f0: 669b 54be c16f b5bd 8c96 a83d 8230 053e
00000300: a175 82bd e817 9abd 4479 463d 9461 613e
00000310: 0350 6b3e 3c6c 6bbe db13 373e e0f6 b83d
00000320: adac 82bd 54fe 0b3c 930a 193e fd12 143e
00000330: 38d1 36be 1c73 8cbd ad72 313e 5d1b 8fbd
00000340: 775b 433e 72ff 47be 0f73 d73d 8dbb 8b3c
00000350: c240 febd 46a2 5ebe 5baf 6f3d e962 29be
00000360: f681 573e 517d 463d faf1 383e 8537 743e
00000370: 01aa 213e e8a8 733e abc6 bb3d 89c0 2f3c
00000380: 9cb5 203e 3475 d63d c49d 6cbe 5af9 ad3d
00000390: 121f 4a3e 2470 883d f83b 713e dd94 363d
000003a0: 01dc 0e3e 0d0a 0e3e 8008 41be 89e5 0f3e
000003b0: 3ec6 12be de3c 3abb c2a7 e4bd e5c2 173e
000003c0: d092 893d 6ff3 043c 522c 8fbd 0557 783d
000003d0: d6a8 09bd ac0f 04be 576f 6e3e 6dda a4bd
000003e0: fa71 ce3d 0f4a 893d 229c f43d e087 abbd
000003f0: 0b45 813d 6244 30be 26a1 bc3c f2d8 533e
-0.15303913 0.19063278 -0.2150658 0.15295188 -0.035433024 -0.09269205 0.0036151404 0.24649721
-0.22220191 0.062407922 -0.21548642 0.057395466 -0.07104551 -0.13136245 0.20732026 0.01991695
0.13153425 0.001599642 -0.1382757 0.0072176787 0.053335015 0.10269828 0.06785061 -0.15119287
-0.026925975 0.020201929 -0.22047347 0.22460732 -0.1979259 0.2333143 -0.061342277 0.05268153
0.21137193 0.07446211 0.030933104 0.21433674 0.024839068 0.0389651 -0.19102809 -0.16221096
0.041549854 -0.1335939 0.06530966 0.08250519 -0.10889826 -0.17197858 0.25133973 0.08583294
-0.04150974 -0.1276675 -0.11952969 -0.06902849 -0.06348189 -0.17340474 -0.0014937859 -0.2419982
-0.1086817 -0.19803582 0.13338533 0.10290299 0.02295112 -0.16372488 0.19807255 0.100819394
0.26504654 -0.16539031 0.0015273936 0.07756284 -0.2223604 -0.13495536 0.068130165 -0.011457513
-0.014547037 0.13445099 0.15051602 0.07464626 -0.2491138 0.0970967 -0.005134435 0.033137847
-0.025633413 -0.08284759 0.11144608 -0.054523736 -0.09958827 -0.1862574 0.088978 0.00020602353
0.18935406 -0.1935385 -0.014877301 0.055439323 0.1696995 -0.07932655 -0.10542877 0.006164761
-0.09254427 0.1389022 0.1976272 0.12573503 0.057083055 0.14912869 0.0046389853 0.12223914
0.17333639 -0.17359883 0.207645 0.23858795 0.16600932 0.008177791 -0.19358142 -0.19239981
-0.0514524 0.24356759 -0.041525263 -0.14939086 -0.07534453 0.0754501 -0.12759842 0.066020906
0.20356348 0.14605562 0.12000016 -0.19081125 0.16912875 0.0022652573 0.0002570601 -0.0793961
0.14407708 -0.17127192 0.18899633 -0.120315425 -0.04280875 0.059717827 0.22411354 -0.007595028
-0.25249803 0.07267578 -0.14243048 0.022823272 0.0637051 0.12829584 -0.004452024 0.15811566
-0.11238516 0.113195986 0.2472798 0.19252427 -0.11835198 -0.12203741 -0.09880368 0.012529705
0.09919032 0.20459731 0.12003167 0.17134196 0.17468151 -0.12833613 0.08928936 -0.20355912
0.20650154 0.087454006 -0.07006556 0.21869001 -0.182386 -0.15249428 0.12580098 0.078735255
0.10637026 0.21289177 0.015443261 0.2277156 0.26430228 0.23578149 0.08918923 -0.25504807
0.11204849 -0.15695484 0.24078226 0.11047067 0.156824 -0.19989395 -0.23763555 0.14020228
0.17714773 0.04349907 0.19738707 0.020099944 -0.20762405 -0.08859206 0.082318395 0.13006786
-0.06370092 -0.07524091 0.04845549 0.2200988 0.22979741 -0.22990507 0.17878668 0.09031463
-0.063805915 0.008544523 0.1494544 0.14460368 -0.17853248 -0.06857893 0.17328902 -0.06987641
0.1907786 -0.19531038 0.105199926 0.017057205 -0.12414695 -0.2174159 0.05851684 -0.16541637
0.2104567 0.048459355 0.18061057 0.23849304 0.15787508 0.23794901 0.09168752 0.010727056
0.15694278 0.104715735 -0.23107058 0.08494826 0.19738415 0.06662014 0.23558033 0.04457556
0.13951112 0.13871022 -0.18850899 0.14052404 -0.14333436 -0.0028417627 -0.1116481 0.1482044
0.067174554 0.00811468 -0.06990875 0.060629863 -0.03360828 -0.12896603 0.2328466 -0.08049474
0.10080333 0.06703579 0.119438425 -0.083755255 0.06311997 -0.17213586 0.02302606 0.20688227

LSTMLayerList.0.Wh f4 [50, 50]
00000000: bf7f 3dbd e87b c33d 0947 863e 61d4 54bd
00000010: 00fd 7e3e 5936 68be 1093 0bbe 9f06 2d3e
00000020: baf5 6ebe 141e 76bd 3b20 eebd 2016 623c
00000030: bc2c 67be 6ef3 53be 970b 543e e75d e33d
00000040: 5e53 82bc 0f80 8fbd 9990 a9bd 841d 9fbd
00000050: a0c7 3b3e 1116 ad3b 96e1 0ebe f5cf c0bb
00000060: a66d 04be 1962 ecbd 15e8 0b3d 8140 4ebd
00000070: 8e2f 783e 42e2 c4bd 08d6 21be 838f fdbc
00000080: e792 ac3d f764 3d3e e1ba 223e f21c e13d
00000090: 9d5b 933e f908 5fbd 9df2 5bbb 6f2b 56be
000000a0: 26e6 ba3d 502f c53d a04f 84bd 184e 1c3e
000000b0: 1614 1a3e 85c2 0f3e c241 04be 6119 af3c
000000c0: e4b2 34be c978 dabd 8244 25be 5478 6dbe
000000d0: 55fb 86be 2952 b03d b3f8 ce3d 917a 85bd
000000e0: 398b 71be 596f e93d bc4c b93d 38c0 903d
000000f0: 6f3c 08bd 7e33 9dbd 3e68 073d 07fd 7fbd
00000100: 6308 5e3d 10c7 aabd 4c7d 14be e1cc 143e
00000110: e2df 973d 2517 133e 4f1a 4d3e 2faa c43d
00000120: a51f 1d3e 06ed 00be 4805 92bd a534 bd3d
00000130: db0f 523e d3b7 4ebe 8270 1dbe ce56 ccbc
00000140: 3ff0 103e 56cf 7a3d 3213 0cbe 3963 e0bc
00000150: 2692 10be aa7e 113e df01 073e 9d76 463e
00000160: 808a abbd 0ee1 62be e784 883e d923 b0bc
00000170: e811 45be 8e64 b53d d5a6 733b e01d 29be
00000180: 3acb 2d3e b9e6 01be d1aa 7ebe a6b9 243c
00000190: 5796 0ebe 9f70 aa3d c7ae 57be 39c5 443d
000001a0: 5d01 10be f283 d1bd 238e 283e 3621 2a3e
000001b0: bcd8 0dbd d7e5 18be 4ed5 dabc 68da 43be
000001c0: 0a5a 2fbe 9689 e8bd 940d 6a3e 2ef2 a9bc
000001d0: 3d20 053e 3b93 73be b0dc 1dbd b497 04bd
000001e0: 4207 713e e0f0 18be be83 9f3c 23f9 29be
000001f0: 93df 02bd 6cc5 cc3d d673 373e a9c6 1bbe
00000200: 39dc 12be 6e59 4bbe 42c4 a2bd 6488 60be
00000210: c206 65be 4cdd 13be 7b68 723d 37e2 613d
00000220: a65b 54be a844 ecbd 4cdc 6d3e 3903 973d
00000230: cfd7 433e 2991 c23d 212d 28bd cdcc 24be
00000240: 05b0 4e3e b5c2 83bd 4863 8cbd edd0 5abe
00000250: 0707 f73b 2ae1 abbd e115 823e 4a8f 723d
00000260: 4b5a 4cbc a451 c73d a57d efbd 890a 63be
00000270: dda0 3b3e 2620 1b3e 57b0 37be 3e28 803e
00000280: 417c 7dbe c127 433e e37e 32bd fac7 6b3c
00000290: 03ef 45be 9f42 17be c9eb 28bb 0056 02be
000002a0: 5a44 41be 8b90 d3bc 032e 4b3d 07da 573d
000002b0: 2825 bb3c b812 33bd 3c92 afbd 046a 56be
000002c0: 2c0e 31be b80a 3dbe e915 ed3c 071c c53d
000002d0: bb21 ae3d 5db6 873d 667f 2dbe c82f 74bd
000002e0: 12e2 1dbe c74f 81bd 1278 0e3e f934 6c3e
000002f0: 128d d33b 8d6c 333e 34aa 0b3d 5fda 403d
00000300: 2dbe b63c 98d8 613d a950 1e3e b15f cfbc
00000310: 443f 9dbd 266e 7d3e b6bf 78bd efb6 20be
00000320: fdbe 2f3d d71b 45be a274 86bd 8fa4 31be
00000330: f5d5 35bd a0ff 423e fccf 07be ef03 9d3d
00000340: 4604 10be 2c54 cebd 8fa2 723d ab3d 9d3d
00000350: 7140 853b 16bc e8ba 5a96 5ebb e34f 6d3e
00000360: 917f 61bd ba8e 10be 211f 42be f6e7 0cbe
00000370: e54f 333e b690 abbd b13e f03d 1585 4fbe
00000380: 267a 233e 015b 263e 0e28 febc c221 2d3e
00000390: 1091 4cbe 94f8 183c 09e1 963c 4029 663e
000003a0: 2f28 8c3d 2bb7 663e 13d2 28be 9fde 23bd
000003b0: 4f75 2ebe 50b1 41be af81 edbd c855 1e3e
000003c0: 7a85 593d 5e07 51be 832d 383e 0792 1dbe
000003d0: 2ed7 703e 94ca 48be 5566 5f3e 1651 8f3d
000003e0: c9fb 553e 3a43 1abc b752 823e de33 16be
000003f0: b52e 863d 2720 f3b9 8535 62bd 22fa 473c
-0.046264406 0.095451176 0.2622607 -0.051960353 0.249012 -0.22676982 -0.13630319 0.16897057
-0.23335925 -0.06008728 -0.11627241 0.01379922 -0.22575659 -0.2069833 0.20707546 0.11101895
-0.015908893 -0.07006847 -0.08279533 -0.077693015 0.1833787 0.0052821715 -0.13953242 -0.0058841654
-0.12932453 -0.11542148 0.034156878 -0.050354484 0.2423689 -0.09613468 -0.15804303 -0.03095222
0.08426457 0.18495546 0.15891601 0.10991849 0.28780833 -0.054451916 -0.0033561357 -0.20915006
0.091259286 0.09628165 -0.064605 0.15264165 0.15046725 0.14039047 -0.1291571 0.021374406
-0.17646366 -0.10667569 -0.16139415 -0.23190433 -0.26363626 0.08609421 0.10106029 -0.06517518
-0.23588265 0.11398191 0.09047839 0.07067913 -0.03326076 -0.07675837 0.033058397 -0.062497165
0.054207217 -0.083387494 -0.14500922 0.1453128 0.07415749 0.14364298 0.20029567 0.096027724
0.15344103 -0.12590417 -0.071299136 0.09238557 0.20513861 -0.20187311 -0.1537495 -0.024943735
0.14154147 0.061232887 -0.13679197 -0.027391063 -0.14118251 0.14208475 0.13184308 0.19381185
-0.08376026 -0.22156164 0.26663896 -0.021501468 -0.19245112 0.0885707 0.0037178297 -0.16515303
0.16972056 -0.1268567 -0.24869849 0.010054028 -0.13924538 0.08322262 -0.21062766 0.04803965
-0.1406302 -0.10230245 0.16460471 0.16614231 -0.034630522 -0.14931427 -0.02671304 -0.19126284
-0.17124191 -0.113543674 0.22856742 -0.020745363 0.13000579 -0.23786633 -0.038540542 -0.032371238
0.23537925 -0.14935637 0.019472 -0.16598944 -0.0319515 0.09998593 0.17915282 -0.15212502
-0.14341821 -0.19858333 -0.079475895 -0.21927029 -0.22365859 -0.14439887 0.05918167 0.055147376
-0.20738086 -0.11536533 0.23228568 0.073736615 0.19125293 0.09500343 -0.041058663 -0.1609375
0.20184334 -0.06433622 -0.06854874 -0.21368761 0.0075386795 -0.08392556 0.25407317 0.059218682
-0.012472699 0.097323686 -0.11693887 -0.22171988 0.18323083 0.15148982 -0.17938362 0.25030702
-0.2475443 0.19058134 -0.04357804 0.01439094 -0.19329457 -0.14771508 -0.0025775305 -0.12728119
-0.1887373 -0.02582576 0.049604427 0.05269816 0.022844866 -0.043719023 -0.08572814 -0.20938879
-0.17290562 -0.1846112 0.028941112 0.096244864 0.08502527 0.0662658 -0.1694313 -0.05961588
-0.1541827 -0.063140444 0.1391299 0.23067082 0.006456026 0.17521878 0.034097865 0.047083255
0.02230748 0.0551382 0.15460457 -0.025314184 -0.076780826 0.2474905 -0.060729705 -0.15694784
0.04290675 -0.19248901 -0.06565215 -0.1734793 -0.0443935 0.19042826 -0.13262933 0.07666766
-0.1406413 -0.10074648 0.05923706 0.07677778 0.00406652 -0.0017756249 -0.0033964128 0.23175006
-0.055053297 -0.14116946 -0.18957187 -0.13760361 0.17510946 -0.08377211 0.117307074 -0.2026561
0.15964565 0.16245653 -0.031024959 0.16907409 -0.19977212 0.009336609 0.018417852 0.22476673
0.06843602 0.2253081 -0.16486387 -0.04000723 -0.17036937 -0.18915296 -0.11597001 0.1546241
0.05310581 -0.20412967 0.17986111 -0.15387736 0.23519585 -0.19608527 0.2181638 0.06997888
0.2089683 -0.009415442 0.2545373 -0.14668223 0.065518774 -0.00046372527 -0.05522682 0.012205632

LSTMLayerList.0.bz f4 [50]
00000000: a2ee ccbb f2b1 a739 3596 58bc 06fe 5b3d
00000010: 1e55 d73a e158 48bc 0148 a73c a500 19bb
00000020: 1cc3 453c 48c3 31bb e0cb 4fbc 114b f9bb
00000030: 7791 193c f848 49b9 c203 9039 1711 9bb7
00000040: 35ca 903b 8b62 8e3b 89ba 18bb 9b62 bb3c
00000050: ae2a d8bb 5b0d b6bb 91ac 103b 68e9 92bb
00000060: 4654 753c cc2e 13bc b61a ccbb 1205 c5bb
00000070: 3a9e 95bc e9f6 d93b dbfc a93a f3bc 1abb
00000080: 873e 443b 5551 5eba 359d 3a3c d74e b53b
00000090: ee5c 323b 42df ecbb 49b0 e2bb bd7d 0c3c
000000a0: 530b 21bc 4aad 25bc 9ac8 a23a 12e2 f93a
000000b0: cd8f 3a3b d4e1 ce3c c26f ddbb fe26 3ebb
000000c0: 226e 7eba 8b0b 1dbc
-0.006254033 0.00031985302 -0.013219406 0.053709053 0.0016428565 -0.012228222 0.020420076 -0.0023346331
0.0120704435 -0.0027124453 -0.012682885 -0.0076078256 0.00937306 -0.00019196037 0.0002746862 -1.8485398e-05
0.004418636 0.0043452433 -0.0023304543 0.022874167 -0.0065968847 -0.0055557913 0.0022075514 -0.0044833906
0.014973706 -0.008983325 -0.00622877 -0.0060125673 -0.018263925 0.0066517484 0.0012969034 -0.0023611158
0.0029944496 -0.00084807473 0.01139002 0.00553308 0.0027216035 -0.007228763 -0.0069179875 0.0085749
-0.00982936 -0.010112116 0.0012419403 0.0019064567 0.002846706 0.025254168 -0.0067577073 -0.002901494
-0.0009705742 -0.009585272

LSTMLayerList.0.bg f4 [50]
00000000: 117a e2bb 9146 103d 8f47 273c 42a5 11ba
00000010: ddea c8bc 345f 9fba 86ed 62bb 42c7 fcba
00000020: 2079 3dbb b8c3 38bb b978 2abd 435f 8fbc
00000030: 9dd6 b9bc 0fbc 2eba eca7 d7bc 1f29 e4bb
00000040: 263d 3bbc 1ffe 74bc 38aa 623c ec70 25b9
00000050: be4f 9abc 6f61 15bb b93e f63a 1211 57bc
00000060: 2c30 31bc eda1 d03b 30b7 90bc 3700 aabc
00000070: 915b 6bb9 da81 c9ba 3019 71bc 382e 483b
00000080: 226a 0fbc 2f85 c0ba 73c0 41bc 8a83 96ba
00000090: 7802 97bb 706f 85bb f36d 23bb 8511 19bc
000000a0: 002b 42bc ca04 bdbb 9b29 d6bb af49 4bbc
000000b0: 4db7 34ba 8824 bfbb 1419 193c 9aba 77bc
000000c0: 1e13 403c 6f42 02bb
-0.006911524 0.035223547 0.010209932 -0.00055559364 -0.024526054 -0.001215911 -0.0034626438 -0.0019285458
-0.0028911307 -0.002819283 -0.041619036 -0.017501479 -0.022685343 -0.0006665596 -0.026325189 -0.00696291
-0.011428153 -0.014953165 0.013834529 -0.00015777693 -0.018836852 -0.002279367 0.0018787003 -0.0131266285
-0.010814708 0.0063669593 -0.017665476 -0.020752056 -0.00022445458 -0.0015373782 -0.014715478 0.0030545127
-0.008753331 -0.0014688129 -0.011825669 -0.0011483293 -0.0046084486 -0.0040721223 -0.002493736 -0.009342556
-0.011851072 -0.005768393 -0.0065357215 -0.012407704 -0.0006893769 -0.0058332123 0.009344358 -0.015120173
0.011723308 -0.0019876023

LSTMLayerList.0.br f4 [50]
00000000: 653d 8c3c dd69 c23c 38f7 97bc fda4 abbb
00000010: 3ebd 133c 91cd f63b b03b 59bb cdd7 cfbb
00000020: 3ef3 0e3c 7c6b 6abc bb14 babb cb1d e0b7
00000030: 698c 28bc c66f cdbc 95eb a8bc b10b 083c
00000040: d338 29bd cc1f 8abb ef21 853c 6af2 e63c
00000050: 9436 a53b fa97 b53c 9e1e 1e3b 8104 ea3b
00000060: 5bd1 cd3c 6c33 3ebc 6ec8 c83c 0a2d 98b9
00000070: d345 b4bb 3fcb 263c 9dca 933c f848 adbc
00000080: f4c3 0c3c ef79 8fbb cd2f 75bb c616 32bc
00000090: 30c8 353c 9d00 593b 179e acbc aad1 673c
000000a0: 3f48 fdbb 908c 22bc c904 b13c 8512 9d3b
000000b0: 39c1 6a3c 0a6d a4bb ad76 a83b 06ee febb
000000c0: a07a 8a3c 5508 213c
0.017119119 0.02373212 -0.0185505 -0.005238174 0.009017287 0.0075318296 -0.0033147149 -0.006342864
0.008724986 -0.014307853 -0.005678741 -2.6716754e-05 -0.010287383 -0.025077712 -0.020620147 0.008303569
-0.041313957 -0.0042152163 0.016251532 0.028191764 0.0050419066 0.022167195 0.0024127136 0.00714165
0.025124243 -0.01160894 0.024509635 -0.00029025256 -0.0055014878 0.010180294 0.01804095 -0.021152958
0.008591641 -0.0043785493 -0.0037412525 -0.010869687 0.011095092 0.0033111938 -0.021071477 0.014149109
-0.0077295597 -0.009921208 0.021608727 0.0047934675 0.014328294 -0.0050178813 0.0051411004 -0.0077798394
0.016904175 0.009828647

LSTMLayerList.0.bh f4 [50]
00000000: 6a4d faba d134 7cbc 0014 433c bafc 21bc
00000010: 97d5 bb3c ee63 cbbb ef4c b73c 1f0b d13b
00000020: 5cc4 523a d848 7f3c 39ad a9bc be9e ad3b
00000030: 074f 94bc 0335 423c 1384 21bd 2665 59bc
00000040: 7912 77bb 0bc5 de3b 6a5e f83b df9f 7a3c
00000050: dff1 9bbc 1dfb ed3c 2ab3 a9bb f260 05bc
00000060: fa5a 1a3b 9a5a 8cbb 61ba 663c 1cb5 363c
00000070: 3686 df3b 8f21 1838 cf7c 3dbb a1fa 983c
00000080: 2a64 723c 6fbd 2bbc e346 283c f2b1 08bc
00000090: aa87 b3bc 3e01 59bc 0beb ebbb ee5d 6bbc
000000a0: 7e91 6fbc 6197 f53c 19ba 8d3a e493 623c
000000b0: 4b86 9f3b a105 5a3c 6fbe ae3c 91a3 0d3c
000000c0: c1a2 503c 0ab6 af3b
-0.0019096558 -0.015393452 0.011906624 -0.009886915 0.022928996 -0.006206981 0.022375552 0.0063794996
0.0008040124 0.015581332 -0.020712482 0.0052984646 -0.01810409 0.011853459 -0.039432596 -0.013268745
-0.003770022 0.0067983917 0.0075796144 0.015296905 -0.019036232 0.029050404 -0.0051788287 -0.008140789
0.0023552761 -0.0042832615 0.014082522 0.011151578 0.006821419 3.6270878e-05 -0.0028913503 0.018674197
0.014794389 -0.010482176 0.010270807 -0.008343207 -0.021915276 -0.013244925 -0.00719965 -0.014365656
-0.01462209 0.02997941 0.0010812908 0.013829205 0.004868304 0.013307006 0.02133104 0.008644954
0.012734116 0.005362277

LSTMLayerList.1.Uz f4 [2, 50]
00000000: 4f83 7ebc 1683 7abe f79b 323e aeb4 703e
00000010: 9c6d aabd 8ad2 cd3d 94ef 4bbe d1ee 073e
00000020: cc8f 8abe af31 68bd c632 f2bd 33de 2f3e
00000030: cb01 c53d fd15 a03d 7d96 0ebe a2e5 793e
00000040: fe2f 873e db2f bfbd c841 de3d 3fc9 99bc
00000050: c30c 913e 51f4 0c3d a6b0 92be c25f 13be
00000060: 83ae 353e 7bd1 a73d 22c9 ea3d 020b 97be
00000070: 6d48 9cbe 58be 9a3e 5e7f b83d 6b1d 463d
00000080: d59d 053e aac3 5c3e 28dc db3b 04cc 77bd
00000090: 9373 f8bb 767c 9cbe 666a 8fbe 2ed7 5fbd
000000a0: 6925 74bd 80d7 013e 6749 cebd 7c64 8a3e
000000b0: 5015 99be 806c 0fbe a05d 133d 9886 263c
000000c0: 53fc 453e 0d0f 683e 5007 8ebd 13cb 0d3d
000000d0: 77b9 5b3e f8ac 803d 9ac5 3e3e 3d05 05bc
000000e0: c290 803e 1af3 27bd 3a37 0b3e 7d88 a1bd
000000f0: 5cb0 173e 5b68 80be 400d 703e 511c 4abd
00000100: 76d6 aa3e deae abbe 3cb5 57be bd28 bdbc
00000110: ff4d 773d 0a46 fc3d edea 3c3e a7b6 8fbe
00000120: 5ff4 e5bc 9aa9 8f3e 41b1 2abe c4e4 ce3e
00000130: c255 a6bd eb5c ddbc 186b 193d 7c5d be3d
00000140: ad27 0fbe cfd0 76bd 0ab8 783e ed57 423c
00000150: 88ec 01be 5316 38be 224a 043e a96e 10bd
00000160: a59b 503d f739 843e 8619 a9be c86b ae3c
00000170: 1978 093e 73cf 31be d446 80be a704 183e
00000180: 2610 8d3e 8b49 57be ff34 77be dfa2 a0be
-0.015534236 -0.24464068 0.17442308 0.23506424 -0.083216876 0.10049923 -0.1991561 0.13274695
-0.27062833 -0.056688007 -0.118260905 0.17174606 0.096194826 0.07816694 -0.13924594 0.24404004
0.26403803 -0.093352996 0.108523905 -0.01877272 0.2833005 0.034412686 -0.28650397 -0.14391997
0.17742352 0.08194252 0.11464144 -0.29500586 -0.30524006 0.30223346 0.09008668 0.0483679
0.1304849 0.21559015 0.0067095943 -0.0604973 -0.007582137 -0.30563706 -0.28010863 -0.05464857
-0.05960599 0.12679863 -0.10072594 0.27029788 -0.29899073 -0.14006233 0.03597796 0.010163926
0.19334535 0.22661991 -0.069349885 0.034617495 0.21457468 0.06282991 0.18630067 -0.008118925
0.2511044 -0.041003324 0.13595286 -0.07887361 0.1481337 -0.25079617 0.23442554 -0.04934341
0.33366746 -0.3353185 -0.21065229 -0.023090715 0.060377117 0.123180464 0.18448992 -0.2806904
-0.028070627 0.28059083 -0.1666918 0.4040891 -0.08121826 -0.027021846 0.03745565 0.092951745
-0.13979979 -0.06025773 0.24288955 0.011861783 -0.12687886 -0.17977266 0.12918904 -0.035261784
0.050929684 0.25825474 -0.33027285 0.021291628 0.1342472 -0.17364292 -0.25054038 0.14845525
0.27551383 -0.21024148 -0.2414131 -0.3137426

LSTMLayerList.1.Ug f4 [2, 50]
00000000: 3ee7 28be c042 cc3d 4692 a43d e93a 3c3e
00000010: 0d57 d1bd 8ba9 fdbd 4de7 91be 95e4 3c3e
00000020: 185e 95bc 1c9c d13d e8dd 083e 2f76 33be
00000030: 2ede b93b ead3 43be 1136 063e c386 93be
00000040: 78be 313e 7b17 6cbd 05ea 9b3d a41a f8bc
00000050: 4ad0 823d 78c3 163e 7f09 b53d dae3 9dbd
00000060: ce7c 013e 9879 25be 521d 943e c8ad ae3d
00000070: c4e3 903d ea29 bb3d 5969 143e a346 2e3e
00000080: ab97 603e 6c51 91b9 98ff b63e 8ab3 3a3e
00000090: bf98 96be 26ee 0e3e 39c2 033e 9c13 3a3e
000000a0: 5cca c9bd 58c9 673e f62a 2dbe 8a22 a93d
000000b0: 1628 25be d96d 23be 75e2 f93d ad23 39bc
000000c0: 2169 04bc 18ba 19be 32f4 74be 0417 a9bd
000000d0: 25bb 2c3e cfbc c63d 4818 10bd cc84 4dbe
000000e0: 7ef5 583e f57d a7be baa4 0cbe ad5a 913d
000000f0: 83ec 1bbe d7c0 c93d 2735 d63b b801 ec3d
00000100: 74ae 17bc 5ca5 d83d 7521 793c f9ee 98be
00000110: 8984 e43d 8412 b63d d360 4d3e 2e6b c63d
00000120: f062 debd c746 b1be 745b 50be 9547 a53e
00000130: 2798 17be 419a 97be 01bb aa3e 35b2 a43d
00000140: 37a2 28be 0969 473d 9f6b 043e 4afc 58be
00000150: 1d05 16be 6545 8fbc fb4a 76be bd6f 82bd
00000160: 17df 363d 3bd2 b93c 5ebc 8dbe 4f1a 3d3e
00000170: e8f1 89bd 4163 a3bd c65f b2be b1ef 8b3d
00000180: 3466 3bbe 13af 89be c4ab 0ebd ec97 ee3d
-0.16494462 0.09973669 0.08035712 0.18381847 -0.10221682 -0.123858534 -0.2849678 0.18446572
-0.018233344 0.102348536 0.133659 -0.17525552 0.005672238 -0.19123808 0.13106562 -0.28813753
0.17357814 -0.05763958 0.07612995 -0.03028614 0.06387384 0.14723003 0.08839702 -0.07709475
0.12645265 -0.16159666 0.2892862 0.0852924 0.07074693 0.09138854 0.14493312 0.17019133
0.21932857 -0.0002771722 0.35741878 0.18232551 -0.2941341 0.13958034 0.12867059 0.18171543
-0.0985305 0.226354 -0.1691092 0.08258541 -0.16128573 -0.15959872 0.122013964 -0.01130001
-0.008081705 -0.15012395 -0.23921278 -0.08256343 0.16868265 0.09703981 -0.035179406 -0.20070189
0.21187398 -0.32713285 -0.13734713 0.07097373 -0.15226941 0.098512344 0.006537098 0.11523765
-0.009257901 0.10578415 0.015205731 -0.29869822 0.111580916 0.0889025 0.20056467 0.09688412
-0.108587146 -0.3462431 -0.20347387 0.32281175 -0.14804135 -0.29609874 0.33345798 0.08041803
-0.1646813 0.048684154 0.12931679 -0.2118999 -0.14650388 -0.017489145 -0.2405204 -0.06368969
0.04464635 0.022683254 -0.27682775 0.18467067 -0.06735593 -0.079779156 -0.34838694 0.06832827
-0.18300706 -0.26891384 -0.034831777 0.116500705
