Saved Weights/1D_sine_initial.pth (torch, 140142 bytes, 39 tensors)

initial_layer.W f4 [2, 50]
-0.023469696 -0.36460233 -0.26555815 0.049564533 0.18112819 -0.28651944 -0.02065332 -0.09496334
-0.15908256 -0.09182924 0.020046968 -0.20136392 0.095584005 0.17995772 -0.06974423 -0.26682168
0.0061130878 -0.15114947 0.23223163 -0.16297023 -0.2020795 -0.28796056 0.0089195045 -0.016406346
0.18003413 -0.31433263 0.20260702 0.1528965 0.018732525 0.15749651 0.058862355 0.06410357
-0.114711344 0.2848106 0.31391844 -0.018752616 0.15367179 0.028580016 0.3337715 -0.26029673
-0.12344483 -0.051992405 0.2739683 -0.06698782 0.08255523 0.11541068 0.17305727 -0.31637055
-0.23078682 0.19706672 -0.06271378 -0.14959317 0.22792664 0.24752827 0.112549 0.2164337
0.18339294 0.313327 0.28624415 -0.14415498 0.35316154 0.040037412 -0.046368226 -0.28146937
0.03614916 -0.14537673 -0.26226264 -0.21664706 -0.17513177 0.16079946 0.21971473 0.33339754
0.2573561 0.24850109 0.0011561227 0.30353633 0.22742768 0.23048995 0.18935664 -0.07134933
0.13919055 0.19092548 0.34444422 0.13308501 -3.74077e-05 0.005740499 0.18176803 -0.22340806
-0.050249986 -0.28880703 0.026217477 0.05071723 -0.09944205 -0.16262266 0.007985268 0.05212035
-0.008480648 -0.15346178 -0.032591585 -0.059166
00000000: 8543 c0bc 28ad babe 3df7 87be 2e04 4b3d
00000010: ab79 393e adb2 92be 2731 a9bc 247c c2bd
00000020: 8ae6 22be f810 bcbd 8a39 a43c 5832 4ebe
00000030: 8cc1 c33d d646 383e 10d6 8ebd da9c 88be
00000040: 4c50 c83b edc6 1abe 21ce 6d3e abe1 26be
00000050: eeed 4ebe 916f 93be 1d23 123c 9a66 86bc
00000060: de5a 383e 35f0 a0be 3778 4f3e e690 1c3e
00000070: f474 993c c446 213e a719 713d bc48 833d
00000080: c8ed eabd b2d2 913e ebb9 a03e 169f 99bc
00000090: 235c 1d3e a320 ea3c 19e4 aa3e 9d45 85be
000000a0: a5d0 fcbd fdf5 54bd 9345 8c3e e930 89bd
000000b0: b712 a93d 6f5c ec3d ed35 313e 52fb a1be
000000c0: 6153 6cbe dccb 493e 1570 80bd f42e 19be
000000d0: 9a65 693e 0d78 7d3e 1780 e63d cca0 5d3e
000000e0: 5ccb 3b3e 666c a03e 988e 923e 5d9d 13be
000000f0: 97d1 b43e 45fe 233d 9cec 3dbd c11c 90be
00000100: 2411 143d a3dd 14be 4a47 86be bad8 5dbe
00000110: be55 33be 9da8 243e e6fc 603e 15b3 aa3e
00000120: 2ec4 833e 1277 7e3e 0a89 973a 1d69 9b3e
00000130: cde2 683e 8f05 6c3e b5e6 413e 991f 92bd
00000140: f887 0e3e f881 433e fe5a b03e 7047 083e
00000150: 36e6 1cb8 cc1a bc3b 6621 3a3e 15c5 64be
00000160: eed2 4dbd 84de 93be 09c6 d63c dfbc 4f3d
00000170: 46a8 cbbd 8e86 26be a4d4 023c 267c 553d
00000180: 6af2 0abc 1625 1dbe c17e 05bd 0c58 72bd

initial_layer.b f4 [50]
0.0067111664 -0.001911542 -0.0054144836 0.013336312 0.0029693956 -0.008445714 0.007118782 -0.0028824206
-0.0035467192 -0.0071072197 0.011109146 -0.0041289264 0.008808812 0.052172016 -0.004182601 -0.0134337135
-0.018305877 -0.033363998 -0.00036292756 0.01183536 0.0022033204 0.0069208075 0.013133853 -6.972092e-05
0.0053973515 -0.01616891 0.019294422 0.02384813 0.0020178142 -0.007838338 0.0036653732 0.015664099
0.011222131 -0.0020686442 0.01327032 0.0010736358 0.016828489 -0.009964227 0.012715873 -0.00073222077
0.024783323 0.0004221 0.0015927943 -0.006290313 0.0024196387 0.011693417 0.013854982 0.008097741
0.014980424 0.014800284
00000000: 58e9 db3b b58c faba fb6b b1bb 8c80 5a3c
00000010: 319a 423b e45f 0abc ac44 e93b fee6 3cbb
00000020: 1370 68bb aee3 e8bb 2303 363c f24b 87bb
00000030: d652 103c 53b2 553d 330e 89bb 1419 5cbc
00000040: 35f6 95bc b0a8 08bd 5047 beb9 19e9 413c
00000050: 9565 103b f1c7 e23b 5f2f 573c 2237 92b8
00000060: 44dc b03b a974 84bc 560f 9e3c 275d c33c
00000070: 4e3d 043b 5f6c 00bc c236 703b ff51 803c
00000080: 07dd 373c 1792 07bb c26b 593c 3db9 8c3a
00000090: e6db 893c ff40 23bc 3d56 503c 81f2 3fba
000000a0: 6506 cb3c 4e4d dd39 4fc5 d03a f81e cebb
000000b0: cd92 1e3b bf95 3f3c 0200 633c 63ac 043c
000000c0: 7470 753c e47c 723c

LSTMLayerList.0.Uz f4 [2, 50]
0.28770554 -0.24665312 0.288179 -0.31777066 0.1222964 -0.30845857 0.23457168 -0.25819522
-0.29479045 0.04759675 -0.023383485 0.03859346 0.25846297 0.25819978 0.14181827 0.10172248
-0.10482287 -0.15881325 0.19652802 0.13592544 -0.22739494 0.2537137 0.06262726 0.22637865
-0.076389894 -0.11070307 -0.11737354 0.3375036 0.32443234 -0.059528373 -0.009456566 -0.33199215
-0.23910436 0.28904566 -0.244143 -0.03212985 0.2537361 0.2620383 -0.27774924 0.3413033
-0.117609754 -0.20006232 -0.23182751 -0.119898565 -0.19736007 0.19717045 -0.11774988 -0.09499959
-0.18607461 0.20629223 -0.12772185 0.30031866 0.022644136 0.2500679 0.19473945 0.33226216
0.16414279 0.040741723 -0.19438705 -0.11775099 0.088196754 -0.01145487 0.22769609 -0.23757698
0.02211199 -0.18669853 0.3415001 -0.05195148 -0.1366792 -0.13727966 0.24713649 -0.15495843
0.17682499 0.20277193 -0.18688376 0.0008565405 -0.33575052 0.14524403 -0.029504249 -0.27429128
-0.07780335 -0.02151694 0.06886574 0.042938754 0.1574574 -0.015729414 0.0633621 -0.29384023
-0.15753227 -0.18868606 -0.14884286 -0.045322258 -0.2589353 -0.23382674 0.32154635 0.27352393
0.033589147 -0.32225534 0.18579857 0.042151626
00000000: 244e 933e a392 7cbe 338c 933e d6b2 a2be
00000010: 8976 fa3d 48ee 9dbe 8f33 703e 2a32 84be
00000020: c6ee 96be cff4 423d b98e bfbc 2d14 1e3d
00000030: 4255 843e c332 843e cf38 113e e053 d03d
00000040: 5fad d6bd f19f 22be a43e 493e 0a30 0b3e
00000050: 38da 68be c3e6 813e b942 803d cecf 673e
00000060: 4e72 9cbd 4bb8 e2bd 8a61 f0bd 46cd ac3e
00000070: ff1b a63e 06d4 73bd b6ef 1abc e0fa a9be
00000080: c6d7 74be cbfd 933e 9f00 7abe 979a 03bd
00000090: b3e9 813e e229 863e 2635 8ebe 4ebf ae3e
000000a0: 62dd f0bd 23dd 4cbe 3164 6dbe 618d f5bd
000000b0: c218 4abe 0de7 493e d926 f1bd 258f c2bd
000000c0: 588a 3ebe 453e 533e 84c9 02be 5ec3 993e
000000d0: 3280 b93c e608 803e c769 473e 441e aa3e
000000e0: 0c15 283e cbe0 263d 660d 47be 6e27 f1bd
000000f0: 80a0 b43d 35ad 3bbc 2a29 693e 6147 73be
00000100: 3424 b53c e62d 3fbe 1ad9 ae3e 13cb 54bd
00000110: a2f5 0bbe 0a93 0cbe 5911 7d3e 6cad 1ebe
00000120: 9c11 353e 72a3 4f3e 755e 3fbe 7689 603a
00000130: 7ee7 abbe daba 143e e5b2 f1bc e86f 8cbe
00000140: 5d57 9fbd 4b44 b0bc 7b09 8d3d 8ce0 2f3d
00000150: 833c 213e f9da 80bc fdc3 813d 3a72 96be
00000160: 2450 21be eb36 41be 436a 18be d5a3 39bd
00000170: 2b93 84be 4770 6fbe b9a1 a43e 540b 8c3e
00000180: c694 093d a7fe a4be fb41 3e3e 2fa7 2c3d

LSTMLayerList.0.Ug f4 [2, 50]
-0.14498338 -0.2077956 -0.33875757 0.15871154 0.27341005 -0.35151508 -0.29213166 0.2719737
-0.20905553 0.08099951 -0.06595191 0.21964428 -0.07237238 0.15870245 0.2174722 -0.296483
0.3109239 0.27539217 -0.30432096 -0.32042995 0.14607544 -0.06242606 0.33826768 -0.005606624
-0.13011926 0.1126602 0.07898413 0.15235165 0.30652288 0.15620527 0.20658152 -0.020326959
-0.3542229 -0.13885374 -0.010590083 0.18042906 -0.22539346 -0.2574532 -0.28739777 0.15465403
-0.09970617 0.23729908 0.19099337 0.25638467 -0.2956518 0.31193593 -0.25113475 -0.06418595
0.0540948 -0.08431244 -0.040849645 -0.16462523 0.07842055 -0.1980396 0.07522274 -0.06736834
0.3223945 0.3433039 -0.16622 -0.042407967 -0.12648416 0.32093444 -0.15936688 0.07079989
-0.26102903 0.35539097 -0.06015909 0.059468895 0.2202766 -0.10141596 -0.18270662 -0.115341984
0.13140398 -0.0629004 -0.19373505 0.021676619 0.2628102 -0.22241817 -0.09355961 0.01755583
0.28541073 -0.09502163 0.07628577 0.20908381 0.013843173 0.020995086 -0.054555032 -0.15525255
0.3325176 0.2092824 -0.31009927 0.07998804 0.016738562 0.08279755 0.06278634 -0.19371581
0.026914913 -0.2989508 0.25483936 -0.052718345
00000000: 8676 14be 5fc8 54be a271 adbe 4785 223e
00000010: 67fc 8b3e c9f9 b3be 4892 95be 2340 8b3e
00000020: a712 56be 12e3 a53d cc11 87bd 6eea 603e
00000030: f837 94bd e582 223e 08b1 5e3e 9fcc 97be
00000040: 6b31 9f3e 3400 8d3e f5cf 9bbe 650f a4be
00000050: cd94 153e 78b2 7fbd 6c31 ad3e c5b7 b7bb
00000060: fc3d 05be 64ba e63d 6ec2 a13d 1202 1c3e
00000070: 91f0 9c3e 46f4 1f3e 1b8a 533e b984 a6bc
00000080: b45c b5be ad2f 0ebe 0782 2dbc 65c2 383e
00000090: 8bcd 66be e8d0 83be cd25 93be a05d 1e3e
000000a0: c032 ccbd 88fe 723e c493 433e da44 833e
000000b0: ac5f 97be 11b6 9f3e bc94 80be ec73 83bd
000000c0: 8292 5d3d 00ac acbd f551 27bd 8493 28be
000000d0: f49a a03d e5ca 4abe 610e 9a3d 6af8 89bd
000000e0: e410 a53e 87c5 af3e 9335 2abe fab3 2dbd
000000f0: 1085 01be 8551 a43e 1231 23be 88ff 903d
00000100: 99a5 85be cef5 b53e 6169 76bd a895 733d
00000110: 3090 613e 2cb3 cfbd 7217 3bbe 6b38 ecbd
00000120: c48e 063e edd1 80bd 7b62 46be 2a93 b13c
00000130: 0f8f 863e 97c1 63be 2e9c bfbd 3ed1 8f3c
00000140: 5b21 923e b39a c2bd b73b 9c3d 111a 563e
00000150: 7ace 623c e3fd ab3c 1975 5fbd 86fa 1ebe
00000160: bf3f aa3e 204e 563e 55c5 9ebe c5d0 a33d
00000170: 4f1f 893c c391 a93d 2096 803d 705d 46be
00000180: aa7c dc3c 1410 99be 4e7a 823e 31ef 57bd

LSTMLayerList.0.Ur f4 [2, 50]
0.28023478 0.22790863 0.21892017 0.16935499 -0.23221429 0.005196923 0.1298623 -0.087885804
-0.12361422 0.04081576 0.1656815 -0.250773 -0.18949842 -0.31433892 -0.25793242 0.24074754
0.02050848 -0.16330749 -0.25905314 -0.14576212 -0.341117 0.3423443 0.17494978 -0.3204476
-0.21368535 0.22074795 -0.06483324 0.11628602 -0.2697718 0.084276095 -0.2623805 0.33471185
-0.25692725 0.17898953 0.057495747 0.025337912 0.08370386 -0.0041721757 0.19760013 0.10118558
-0.21865642 -0.23266424 0.03162926 -0.33974877 -0.32567778 -0.22523768 0.2776504 -0.14483783
-0.23514204 0.3288082 -0.1928389 0.12699246 0.09520908 0.15860134 -0.22810675 -0.18382454
0.2954846 0.13984832 0.24268943 0.06803626 0.17719428 -0.19319232 -0.04811867 0.19299996
-0.25380003 -0.29446465 -0.2549565 -0.17108342 -0.16881227 -0.2447981 0.26058686 -0.14531863
-0.25651714 0.095961794 -0.020995488 0.015810577 0.17722875 0.2038376 -0.06803497 0.09899728
0.013523709 -0.23712155 -0.16888899 0.24858172 -0.29325354 0.31267488 -0.08346284 0.30066568
-0.20307001 0.16692992 0.009522705 0.22457449 -0.092098854 -0.050729662 -0.27820128 -0.12903191
0.14035277 -0.10888114 -0.15527494 0.09740415
00000000: ef7a 8f3e e160 693e 9c2c 603e 656b 2d3e
00000010: 95c9 6dbe f34a aa3b 9ffa 043e 79fd b3bd
00000020: 7429 fdbd 6d2e 273d 69a8 293e 5265 80be
00000030: e00b 42be 08f1 a0be b80f 84be 8686 763e
00000040: 6601 a83c 143a 27be 9da2 84be aa42 15be
00000050: e3a6 aebe c147 af3e 0926 333e b511 a4be
00000060: 55d0 5abe c00b 623e 4ac7 84bd 5d27 ee3d
00000070: 881f 8abe f298 ac3d bd56 86be 5a5f ab3e
00000080: f88b 83be 0849 373e a980 6b3d 7491 cf3c
00000090: ee6c ab3d bfb6 88bb b057 4a3e 633a cf3d
000000a0: 78e7 5fbe 893f 6ebe af8d 013d 8df3 adbe
000000b0: 3dbf a6be b5a4 66be 3128 8e3e 5e50 14be
000000c0: 13c9 70be 8c59 a83e 9077 45be 500a 023e
000000d0: fafc c23d 6468 223e d194 69be 803c 3cbe
000000e0: c249 973e 6634 0f3e 9483 783e 9856 8b3d
000000f0: 6b72 353e 35d4 45be 1518 45bd c8a1 453e
00000100: 14f2 81be 12c4 96be a989 82be 7e30 2fbe
00000110: 20dd 2cbe 5aac 7abe a46b 853e 68ce 14be
00000120: 3756 83be 9e87 c43d bbfe abbc 2f85 813c
00000130: 747b 353e ceba 503e eb55 8bbd 16bf ca3d
00000140: 8c92 5d3c fecf 72be 3cf1 2cbe 358c 7e3e
00000150: 5425 96be ec16 a03e 91ee aabd daf0 993e
00000160: 96f1 4fbe adef 2a3e 1f05 1c3c dbf6 653e
00000170: 539e bcbd e8c9 4fbd 6670 8ebe f120 04be
00000180: a3b8 0f3e 13fd debd 6500 1fbe d47b c73d

LSTMLayerList.0.Uh f4 [2, 50]
0.14432843 -0.0027015705 0.22188592 0.111891784 -0.32703972 0.33701417 0.18799004 -0.15602554
0.15192796 0.20804422 -0.15357886 0.19999605 0.0986693 0.065251425 0.29288706 -0.07455822
0.22255805 0.039444923 -0.18012488 0.11902699 0.16033126 0.21844311 -0.19530831 0.13885209
-0.26783744 0.080527544 -0.30949622 0.3291595 0.19483963 0.067133226 -0.1173447 0.21159978
-0.11008044 0.08693785 0.2915675 -0.23011816 0.3024358 0.17523305 0.20118637 -0.14706115
-0.012452536 -0.3635364 -0.11008866 0.34757632 -0.1711777 -0.14807375 -0.09692271 0.16230747
0.20544693 -0.16867046 -0.03837148 0.11923303 -0.32308793 -0.06801539 -0.105825126 0.0008624306
-0.004665358 -0.00534255 0.060189925 0.19199085 -0.26587728 -0.3012066 0.1893988 -0.29126263
0.046436235 0.006973482 -0.22446479 0.19166078 -0.1443613 0.27196622 -0.23697202 0.048732985
0.23323843 0.24432868 0.07806476 0.23187052 -0.35217407 -0.2009513 0.20659089 0.07987485
0.15151559 0.30680132 -0.009276253 0.30590877 0.05730231 0.31356654 -0.16901754 -0.28632152
0.12829609 0.27864745 0.08261024 -0.0883367 -0.06843987 -0.34202877 0.28634673 0.14718454
0.051180873 -0.3393508 0.07488199 0.104523666
00000000: d5ca 133e d50c 31bb 1036 633e 8527 e53d
00000010: c071 a7be 1f8d ac3e 7680 403e 29c5 1fbe
00000020: 0193 1b3e 8b09 553e c743 1dbe c4cb 4c3e
00000030: 2113 ca3d 8aa2 853d 4bf5 953e fbb1 98bd
00000040: 42e6 633e 0091 213d a872 38be 6cc4 f33d
00000050: e12d 243e 8daf 5f3e e7fe 47be 3e2f 0e3e
00000060: fd21 89be a0eb a43d 4a76 9ebe 9887 a83e
00000070: 0a84 473e 257d 893d 6b52 f0bd 9dad 583e
00000080: db71 e1bd 790c b23d 5648 953e 18a4 6bbe
00000090: ddd8 9a3e 4b70 333e cd03 4e3e 3397 16be
000000a0: b905 4cbc 7121 babe 2a76 e1bd 86f5 b13e
000000b0: 3549 2fbe a5a0 17be 6a7f c6bd ee33 263e
000000c0: ae60 523e f3b7 2cbe 6a2b 1dbd 7230 f43d
000000d0: c86b a5be a74b 8bbd d8ba d8bd bd14 623a
000000e0: dcdf 98bb 8f10 afbb b689 763d 4099 443e
000000f0: 1121 88be c037 9abe c2f1 413e 6020 95be
00000100: ec33 3e3d cf81 e43b 19da 65be b942 443e
00000110: 73d3 13be 283f 8b3e cba8 72be 3d9c 473d
00000120: 0ed6 6e3e 4c31 7a3e 6be0 9f3d 776f 6d3e
00000130: 2950 b4be 2dc6 4dbe 908c 533e 6d95 a33d
00000140: e726 1b3e 1015 9d3e 6dfb 17bc 13a0 9c3e
00000150: d4b5 6a3d cb8b a03e ef12 2dbe bc98 92be
00000160: 0d60 033e e1aa 8e3e 8f2f a93d dfe9 b4bd
00000170: 342a 8cbd 651e afbe 0a9c 923e 8bb7 163e
00000180: 09a3 513d 63bf adbe bb5b 993d 8110 d63d

LSTMLayerList.0.Wz f4 [50, 50]
0.081842534 -0.08660535 -0.05321905 0.11157245 -0.13533667 -0.16147693 -0.14254388 0.07912822
0.069301605 -0.09182868 0.047376934 0.14288194 -0.16636714 0.021728987 0.11203725 -0.022687627
0.10401044 0.057455685 -0.21626319 -0.13762707 0.21527179 0.00014366332 -0.2102137 -0.2054122
0.03204642 -0.035921074 -0.1841246 0.032119706 -0.02586248 0.24963552 -0.0031219055 0.040162724
0.10198555 0.13822408 0.17895052 -0.17856638 -0.1279134 -0.20240304 0.20047405 0.22848095
-0.17789093 -0.14676422 0.13185872 0.20357633 0.09540452 0.13478994 -0.20272905 -0.03990236
0.035144143 0.036424022 0.003579095 0.17013301 -0.18441848 0.1480272 0.2016242 -0.2509523
-0.07821029 -0.12209921 -0.21981207 0.10053224 -0.24769256 -0.17389216 0.10930069 0.18111904
0.17737292 0.054047614 -0.1009652 0.06470789 -0.17485881 -0.16852541 -0.053969383 0.19191262
0.16811149 0.12776318 -0.049614985 -0.005708174 0.014472282 0.22829543 -0.15278351 0.074594945
-0.003893594 0.029375292 -0.16745982 0.21404432 0.053468455 0.25399202 0.18555322 0.08955242
0.040441066 -0.025247196 -0.23120399 0.028239012 0.03995461 -0.07655799 -0.09623859 -0.03250309
-0.11862031 -0.16198984 -0.1541866 0.2388015 -0.11271622 0.21444286 -0.049764503 -0.22373319
-0.11525609 -0.054782808 -0.1320475 0.22804628 -0.1904354 0.037004925 0.02912789 0.18443875
-0.043070648 -0.14572512 0.2181096 0.027942142 -0.06732753 0.020123068 -0.21991667 0.2248887
-0.13577342 0.19332208 0.046598457 -0.14054582 0.075604945 -0.14707674 -0.16777973 0.23297408
-0.041996837 -0.075791635 0.032897208 0.03665643 0.12417921 -0.21054907 0.18481164 -0.09690741
0.15539604 -0.01309281 0.08223582 0.0955312 -0.03167254 0.1917744 0.05010529 -0.015981913
0.13284166 -0.017327027 0.22371365 -0.05048761 0.20993043 0.06902894 0.008920379 0.039756883
0.14400885 -0.102932386 -0.17253533 0.015456088 -0.02177187 0.031736426 -0.029605757 -0.12944327
-0.19237708 0.094053686 0.23480643 -0.118278444 0.09124379 -0.022462599 -0.18364228 -0.21591336
0.14584307 0.038984317 -0.109084055 -0.026870685 0.2118052 0.1893636 0.06327963 -0.070536494
0.20772447 -0.103460886 0.11081459 0.020669987 0.020057373 -0.04997058 -0.20680442 0.16233423
-0.15491258 -0.19248848 0.23461254 -0.1962759 0.104693316 0.16700599 -0.036878977 -0.23605673
0.2123985 0.15082113 -0.10022339 -0.21906035 0.23737246 0.05638961 0.2327554 0.22327618
-0.070655756 0.1075737 0.036717042 -0.22925624 -0.14594476 0.123561665 0.1469593 -0.059159458
-0.04799167 -0.012328458 0.039268095 0.09477623 -0.15469421 -0.098573565 -0.16181943 0.13531469
0.21044932 -0.18241076 -0.1987555 0.062487803 0.18436952 0.23657253 -0.115547135 -0.095893025
-0.05118495 -0.23130614 -0.12542315 0.091664456 0.015475105 0.10779124 0.16602267 0.08277514
-0.14658448 0.12768169 -0.1038546 0.0598975 -0.0484174 0.22052802 -0.16786017 0.15898518
0.046502914 -0.0383062 -0.0032961993 0.16838162 0.20450264 0.04176556 0.11128356 0.24984318
-0.16167532 0.06867282 0.19500034 -0.22121227 -0.012060161 -0.05123131 0.21484846 0.19508776
00000000: 0f9d a73d 255e b1bd 38fc 59bd 1980 e43d
00000010: b295 0abe 355a 25be 06f7 11be fa0d a23d
00000020: 00ee 8d3d ad10 bcbd 510e 423d a54f 123e
00000030: 265c 2abe fd00 b23c c973 e53d 67db b9bc
00000040: 6d03 d53d a756 6b3d 1974 5dbe 1cee 0cbe
00000050: 3570 5c3e 54a4 1639 4342 57be 9357 52be
00000060: 1b43 033d fa21 13bd 298b 3cbe f48f 033d
00000070: 8ddd d3bc 74a0 7f3e e298 4cbb ab81 243d
00000080: cddd d03d 9d8a 0d3e ce3e 373e 1bda 36be
00000090: bbfb 02be be42 4fbe 1249 4d3e e9f6 693e
000000a0: 0a29 36be 5c49 16be f905 073e 5076 503e
000000b0: 7263 c33d 6006 0a3e 3498 4fbe a870 23bd
000000c0: 4ef3 0f3d 5b31 153d 408f 6a3b 5937 2e3e
000000d0: 33d8 3cbe 7194 173e 9376 4e3e d27c 80be
000000e0: b72c a0bd 270f fabd 6a16 61be d9e3 cd3d
000000f0: 1ea3 7dbe c910 32be 0ad9 df3d 4577 393e
00000100: 3fa1 353e 0861 5d3d d8c6 cebd 9285 843d
00000110: 300e 33be ed91 2cbe 000f 5dbd be84 443e
00000120: 6b25 2c3e 5ad4 023e 1539 4bbd a20b bbbb
00000130: 261d 6d3c 47c6 693e 4873 1cbe 3cc5 983d
00000140: ab2b 7fbb 74a4 f03c 967a 2bbe 6f2e 5b3e
00000150: bd01 5b3d 3e0b 823e aa01 3e3e 4267 b73d
00000160: 88a5 253d 35d3 cebc bdc0 6cbe 8055 e73c
00000170: 72a7 233d 6fca 9cbd bd18 c5bd f621 05bd
00000180: 35ef f2bd aae0 25be 18e3 1dbe 6188 743e
00000190: c3d7 e6bd e996 5b3e ddd5 4bbd 501a 65be
000001a0: 630b ecbd f063 60bd 7637 07be f784 693e
000001b0: 7f01 43be 7a92 173d 9d9d ee3c 83dd 3c3e
000001c0: d96a 30bd f738 15be 1f58 5f3e ebe6 e43c
000001d0: 04e3 89bd 22d9 a43c d631 61be 3949 663e
000001e0: 3008 0bbe 39f6 453e 06de 3e3d 3eeb 0fbe
000001f0: c4d6 9a3d 499b 16be 73ce 2bbe c290 6e3e
00000200: e004 2cbd a538 9bbd 39bf 063d 0e25 163d
00000210: ab51 fe3d 2d9a 57be 433f 3d3e 6477 c6bd
00000220: 2420 1f3e 3a83 56bc 416b a83d dda5 c33d
00000230: 11bb 01bd 8260 443e 343b 4d3d 80ec 82bc
00000240: a507 083e 69f1 8dbc 3115 653e 19cc 4ebd
00000250: 01f8 563e 0b5f 8d3d c826 123c 1dd8 223d
00000260: 0e77 133e 37ce d2bd 1aad 30be 883b 7d3c
00000270: ec5a b2bc 0efe 013d c687 f2bc c78c 04be
00000280: 7ffe 44be 389f c03d 1971 703e f83b f2bd
00000290: 06de ba3d 7c03 b8bc b90c 3cbe 6418 5dbe
000002a0: e357 153e 05ae 1f3d 7667 dfbd e91f dcbc
000002b0: 76e3 583e 88e8 413e c098 813d 7075 90bd
000002c0: b9b5 543e 4de3 d3bd c2f2 e23d 1b54 a93c
000002d0: 5c4f a43c f3ad 4cbd 8ac4 53be f23a 263e
000002e0: 67a1 1ebe b31b 45be 453e 703e 8dfc 48be
000002f0: 7369 d63d 9e03 2b3e 690e 17bd dbb8 71be
00000300: fe7e 593e db70 1a3e ec41 cdbd 5b51 60be
00000310: c411 733e cbf8 663d 6e57 6e3e 83a2 643e
00000320: f7b3 90bd 9a4f dc3d 9c64 163d 26c2 6abe
00000330: 8b72 15be e60d fd3d 807c 163e 3051 72bd
00000340: ea92 44bd 4dfd 49bc 95d7 203d 0a1a c23d
00000350: 2968 1ebe f0e0 c9bd feb3 25be ef8f 0a3e
00000360: 0780 573e e3c9 3abe 9086 4bbe 36f3 7f3d
00000370: 5dcb 3c3e 1240 723e faa3 ecbd 9063 c4bd
00000380: 4fa7 51bd 84db 6cbe ed6e 00be 93ba bb3d
00000390: 4b8b 7d3c a7c1 dc3d d901 2a3e 0386 a93d
000003a0: 3e1a 16be fdbe 023e b8b1 d4bd 1557 753d
000003b0: 5351 46bd 19d2 613e 89e3 2bbe 03cd 223e
000003c0: d779 3e3d f6e6 1cbd 0c05 58bb 3b6c 2c3e
000003d0: 2469 513e 5d12 2b3d a3e8 e33d e4d6 7f3e
000003e0: 378e 25be 56a4 8c3d 2bae 473e 7885 62be
000003f0: fb97 45bc ecd7 51bd 3c01 5c3e 16c5 473e

LSTMLayerList.0.Wg f4 [50, 50]
-0.17972252 -0.118508086 0.1058521 -0.14409074 -0.01800899 0.17813572 -0.07749858 -0.24834318
-0.15637359 -0.009139819 -0.22437674 -0.14393629 0.17961086 -0.1735224 -0.07203256 -0.09707235
-0.23572622 0.1436349 -0.19385901 0.21301802 0.06360509 0.0036592376 -0.092100516 0.09707691
-0.16580495 -0.13613358 0.12693053 -0.1071159 0.17183352 -0.023111267 -0.04104246 0.17695281
0.25599563 0.21868347 0.0066232295 -0.17530575 -0.14091846 -0.040379103 0.041470334 0.18242934
0.15408787 0.22079802 0.07112155 0.13589172 -0.033685382 -0.03999424 -0.017402662 -0.08165739
-0.06575391 0.01382111 0.050511986 0.14089084 -0.23878306 0.1566799 -0.069828495 0.0039833486
-0.23144354 0.21398735 -0.2911812 0.21810438 -0.040255293 0.042727847 0.12752973 0.22560477
-0.17000815 0.23175716 0.11104907 -0.042686436 0.22435898 -0.114425 -0.09428515 0.15229975
-0.09929004 -0.2172148 -0.19268216 -0.0009851812 -0.077193335 0.09610863 -0.05745818 -0.1777826
-0.07781987 -0.06318736 0.1752504 0.040643193 0.018363275 0.031887747 0.18013178 0.050100278
0.04653942 -0.14330533 -0.13124193 0.19994682 -0.14448854 0.18601853 0.014709878 -0.08923346
0.23521474 0.22110027 0.12817328 -0.08239106 -0.03744583 -0.23873587 -0.18407191 -0.18831588
-0.036948204 -0.19527319 -0.075372115 0.0785895 -0.14387181 0.19846287 0.16899316 0.1603565
0.030638566 0.14822452 0.13402317 0.035651825 -0.07386678 -0.07128345 -0.011658377 0.1277045
0.21268767 0.124144755 -0.20842583 -0.22369117 -0.051215436 0.19991586 0.013378874 0.041911863
-0.049966317 0.055724118 0.15225375 -0.15311852 0.072126664 -0.019205242 0.008409762 0.07090109
-0.15849406 0.06688421 -0.027229933 0.06193817 0.20258775 -0.063281 0.05788761 0.053149648
0.20546855 0.074437894 -0.10394127 -0.059317157 0.20042145 -0.12623489 0.21513839 -0.21080768
0.21014331 -0.20032264 0.013939042 -0.24466531 0.014056969 -0.013878439 -0.05565325 -0.07980103
0.040204797 -0.1268349 0.07884748 -0.09484033 0.095140405 -0.031421248 -0.24718806 -0.19361058
0.029536316 -0.0761235 -0.21577537 -0.00074573065 0.12079568 0.15995751 -0.17893879 0.021489713
0.08304062 -0.16629232 -0.006348335 -0.20334339 0.06298683 0.11328068 0.1509436 0.14830725
-0.076554604 0.0016479497 0.20638044 0.17711574 0.100384094 -0.20530061 -0.112297446 -0.24480899
0.13769175 0.17105028 -0.22078077 -0.047262225 0.18215263 0.06664695 -0.2020224 0.04029593
-0.17107204 0.1018003 0.21713544 -0.04771556 -0.029885959 -0.06470261 -0.21366541 0.12104118
0.1098785 0.07592917 -0.047553554 -0.07254263 0.12555712 0.09653819 -0.1676614 0.08274067
0.22136597 -0.18840595 -0.2274264 -0.07329628 -0.06390031 -0.23206578 -0.038274493 0.085517816
0.18373224 0.14700978 -0.0056456667 0.12982564 -0.0004764146 -0.036713287 -0.14156526 0.027436726
0.17533298 0.20804232 0.083669454 -0.17514907 -0.2402155 -0.0593631 -0.17463158 0.020334717
0.068851925 0.047598418 0.21176647 0.09336308 -0.096402794 -0.2465523 0.013207566 0.051959097
-0.0446468 0.0641316 -0.18991746 0.10732161 -0.24627973 -0.10655474 0.11174491 -0.07966061
00000000: 2e09 38be 5eb4 f2bd fcc8 d83d 868c 13be
00000010: 9787 93bc 3669 363e 93b7 9ebd ad4d 7ebe
00000020: 6620 20be 2ebf 15bc 04c3 65be 0964 13be
00000030: e9eb 373e dbaf 31be cf85 93bd decd c6bd
00000040: 3762 71be 0715 133e fa82 46be 6521 5a3e
00000050: 6343 823d d2cf 6f3b 329f bcbd 42d0 c63d
00000060: c6c8 29be 9a66 0bbe 14fa 013e 955f dbbd
00000070: 20f5 2f3e d753 bdbc 231c 28bd 1e33 353e
00000080: dc11 833e 8fee 5f3e ad07 d93b 5a83 33be
00000090: ee4c 10be 8f64 25bd ccdc 293d c2ce 3a3e
000000a0: 36c9 1d3e e018 623e 2da8 913d 3327 0b3e
000000b0: aff9 09bd 00d1 23bd 0790 8ebc fd3b a7bd
000000c0: fca9 86bd f071 623c a8e5 4e3d b045 103e
000000d0: 8c83 74be b270 203e 3e02 8fbd c086 823b
000000e0: 89ff 6cbe 801f 5b3e b415 95be c156 5f3e
000000f0: bce2 24bd 6503 2f3d 2797 023e f004 673e
00000100: 9e16 2ebe c051 6d3e b26d e33d f9d7 2ebd
00000110: 5cbe 653e a857 eabd 9318 c1bd 77f4 1b3e
00000120: 9458 cbbd 8e6d 5ebe 794e 45be 3221 81ba
00000130: 8a17 9ebd 9ad4 c43d 4559 6bbd a40c 36be
00000140: 0660 9fbd 6068 81bd d774 333e 7a79 263d
00000150: 946e 963c ba9c 023d 7774 383e f335 4d3d
00000160: 1ea0 3e3d a2be 12be 4964 06be dcbe 4c3e
00000170: cef4 13be a47b 3e3e b301 713c 08c0 b6bd
00000180: 22dc 703e 1c68 623e db3f 033e a5bc a8bd
00000190: cc60 19bd 2d77 74be 597d 3cbe e1d5 40be
000001a0: 0057 17bd b2f5 47be b25c 9abd 88f3 a03d
000001b0: 2253 13be da39 4b3e 8b0c 2d3e 7f34 243e
000001c0: bbfd fa3c 2bc8 173e 5f3d 093e a607 123d
000001d0: 7747 97bd 0ffd 91bd c702 3fbc f8c4 023e
000001e0: ccca 593e 9b3f fe3d 956d 55be 4c0f 65be
000001f0: 47c7 51bd beb6 4c3e 1133 5b3c c6ab 2b3d
00000200: 7ba9 4cbd f93e 643d 68e8 1b3e 1acb 1cbe
00000210: 25b7 933d 5054 9dbc 19c9 093c 9734 913d
00000220: 444c 22be 97fa 883d 4f11 dfbc e1b2 7d3d
00000230: 2a73 4f3e 7899 81bd 8f1b 6d3d 72b3 593d
00000240: 5966 523e e572 983d 29df d4bd 8cf6 72bd
00000250: 483b 4d3e b843 01be 3d4d 5c3e f8dd 57be
00000260: cf2f 573e 6121 4dbe 9460 643c 8b89 7abe
00000270: 344f 663c 6462 63bc aaf4 63bd b96e a3bd
00000280: c9ad 243d 02e1 01be ca7a a13d a63b c2bd
00000290: f9d8 c23d 91b3 00bd de1e 7dbe da41 46be
000002a0: 25f6 f13c a3e6 9bbd 38f4 5cbe 237d 43ba
000002b0: ba63 f73d e7cb 233e bb3b 37be 320b b03c
000002c0: 3311 aa3d 8948 2abe b205 d0bb 4039 50be
000002d0: 3dff 803d b3ff e73d f690 1a3e dbdd 173e
000002e0: a9c8 9cbd 0400 d83a 6555 533e d45d 353e
000002f0: 2d96 cd3d 533a 52be 34fc e5bd 35af 7abe
00000300: 11ff 0c3e ce27 2f3e 5b14 62be 0996 41bd
00000310: 3886 3a3e 327e 883d f6de 4ebe 580d 253d
00000320: 822d 2fbe ad7c d03d c158 5e3e 6471 43bd
00000330: 66d3 f4bc cd82 84bd 1bcb 5abe 70e4 f73d
00000340: fb07 e13d c180 9b3d 84c7 42bd 3b91 94bd
00000350: 0c92 003e d1b5 c53d 6eaf 2bbe f173 a93d
00000360: c3ad 623e 7ded 40be 77e2 68be 5c1c 96bd
00000370: 2ade 82bd a7a2 6dbe b7c5 1cbd f723 af3d
00000380: 4e24 3c3e bb89 163e 49ff b8bb 03f1 043e
00000390: 49c7 f9b9 ac60 16bd 7cf6 10be fcc2 e03c
000003a0: 7d8a 333e 0c09 553e e45a ab3d 475a 33be
000003b0: 0dfb 75be b926 73bd 9fd2 32be fe94 a63c
000003c0: 3d02 8d3d 8ff6 423d 4fd9 583e 2435 bf3d
000003d0: d46e c5bd 3578 7cbe 8c64 583c 10d3 543d
000003e0: 90df 36bd 6e57 833d b979 42be 6fcb db3d
000003f0: c130 7cbe 5f39 dabd 84da e43d 1a25 a3bd

LSTMLayerList.0.Wr f4 [50, 50]
-0.2072005 0.15308629 0.008070384 0.1285787 0.24505371 -0.08111022 0.03643906 0.22795492
0.09404348 0.19303514 -0.19086564 0.13804516 -0.09942152 0.24380367 -0.0005682078 -0.12280936
0.20689167 0.22180791 0.20306064 0.16529976 -0.004146661 -0.24181144 -0.14923829 0.12999283
-0.15563887 -0.08623492 -0.15379341 0.20810135 0.23467883 0.17361563 -0.021146968 0.041442
0.1652726 -0.23343794 -0.1726355 0.17372774 -0.0134952385 0.14682685 0.056037422 -0.027462946
0.15086122 0.15297602 -0.16138019 -0.0070685884 0.18869026 -0.1167999 0.089684226 -0.0099351555
0.023358885 0.14034265 -0.15926698 0.065217234 0.04130262 -0.2451304 0.1528425 -0.06883958
-0.23292752 0.1399563 -0.24379857 0.226499 -0.095986314 0.22633621 -0.12057464 0.2244762
-0.13964927 0.2035014 0.20078473 0.2387033 -0.025679478 0.026710385 -0.10113123 -0.06625942
0.0741786 -0.020699793 -0.061742526 -0.045189373 -0.16287884 -0.008457274 -0.052774265 -0.14210735
-0.034188077 0.016122423 0.14190419 0.004172741 -0.14499757 -0.19373235 -0.18045326 -0.22166978
0.023511589 0.019109366 -0.04433657 -0.16509686 -0.15781589 0.16651334 -0.20435879 -0.011217534
-0.02836729 0.10455908 0.047197398 0.09665151 0.11986157 -0.014459937 -0.048958085 -0.06468353
0.05811575 0.16864601 -0.09939588 0.00070437475 0.05288768 0.14566934 -0.22272508 0.050859153
-0.2528425 -0.21117096 -0.2333896 0.16978408 -0.14426035 -0.04038236 -0.23050402 -0.008291515
-0.18325564 -0.20490088 -0.121213265 0.22234513 0.0764185 -0.09567237 -0.26637116 -0.18814944
0.060409743 -0.07894249 0.08634144 0.21468674 -0.027668897 0.14055967 -0.063612394 -0.21359882
0.19603787 0.0974302 0.14725588 0.062484488 0.21225196 0.0011525021 0.0836302 -0.01891559
-0.0012353433 0.17785524 0.22334836 -0.016359506 0.16499518 0.19498132 0.16078374 -0.048708625
-0.008962305 -0.06966793 0.1317241 0.08856287 0.20174612 0.22091104 0.039393608 -0.047413666
0.09062095 0.25824752 -0.17343369 0.057061426 -0.16620842 -0.15584452 0.025439302 0.030045392
0.21475212 0.19031696 -0.097329594 0.17519072 0.0180587 0.20508909 -0.06756458 0.14575312
0.189936 -0.24275906 0.09662547 0.16120254 -0.04429784 -0.041244175 -0.20560344 -0.12341163
0.068543695 0.22016226 -0.048421312 0.076869234 -0.11707411 0.12424913 0.2043507 0.08591726
0.1942482 0.17666459 0.1576839 0.17795074 -0.21994545 0.047240604 -0.1877321 -0.11375819
-0.2200263 -0.1831044 -0.09642498 0.03343292 0.07389398 0.22566481 -0.07834182 -0.23940995
-0.09208059 0.050067816 0.20498173 0.2189441 0.080524586 0.048334666 -0.013589656 0.053779624
-0.05596559 -0.17978267 0.010021552 -0.19012634 -0.2114079 0.10609179 0.08021051 0.23138085
-0.05920863 -0.004646312 -0.23882197 0.15586019 -0.24673603 -0.24410911 0.063680954 0.08421194
-0.03979324 -0.09350371 -0.0013271065 -0.13753082 0.10447744 0.124418996 0.14557132 0.1516823
-0.05675721 -0.11831487 0.17213242 0.0064172614 0.09316199 0.12183671 -0.061253764 -0.081174225
-0.14575942 -0.079998426 0.0763278 -0.0049032224 -0.09648119 -0.046175268 -0.2291082 0.1919181
00000000: 5e2c 54be a7c2 1c3e a539 043c 22aa 033e
00000010: 5cef 7a3e 1d1d a6bd 2041 153d 046d 693e
00000020: de99 c03d 01ab 453e 4872 43be b65b 0d3e
00000030: 839d cbbd aba7 793e c8f3 14ba 7983 fbbd
00000040: 69db 533e 9d21 633e 21ef 4f3e 5744 293e
00000050: b7e0 87bb 6b9d 77be ecd1 18be d71c 053e
00000060: cc5f 1fbe ef9b b0bd 057c 1dbe 8518 553e
00000070: a64f 703e 4cc8 313e 683c adbc 16bf 293d
00000080: 383d 293e 5b0a 6fbe 5cc7 30be afe5 313e
00000090: 221b 5dbc c759 163e 7f87 653d f9f9 e0bc
000000a0: 5d7b 1a3e bfa5 1c3e d940 25be 9e9f e7bb
000000b0: 0538 413e c934 efbd 5dac b73d 10c7 22bc
000000c0: 225b bf3c fcb5 0f3e e216 23be 9d90 853d
000000d0: f02c 293d 7703 7bbe bf82 1c3e c4fb 8cbd
000000e0: 8d84 6ebe b450 0f3e 55a6 79be 5bef 673e
000000f0: 7994 c4bd aec4 673e d6ef f6bd 17dd 653e
00000100: 3800 0fbe ac62 503e 839a 4d3e a36e 743e
00000110: c55d d2bc bdcf da3c e41d cfbd 05b3 87bd
00000120: f3ea 973d 9d92 a9bc bbe5 7cbd 7e18 39bd
00000130: b6c9 26be 6190 0abc d429 58bd 9784 11be
00000140: cc08 0cbd 2c13 843c 554f 113e 7dbb 883b
00000150: 3e7a 14be c661 46be bdc8 38be 67fd 62be
00000160: 609b c03c 3f8b 9c3c 439a 35bd 270f 29be
00000170: 7d9a 21be 7982 2a3e 6e43 51be bfc9 37bc
00000180: 8562 e8bc 1223 d63d 0f52 413d 3af1 c53d
00000190: fc79 f53d 5fe9 6cbc 4688 48bd cc78 84bd
000001a0: c80a 6e3d 8ab1 2c3e 1190 cbbd caa5 383a
000001b0: c0a0 583d 582a 153e 0b12 64be b051 503d
000001c0: 9274 81be 333d 58be affd 6ebe e1db 2d3e
000001d0: fcb8 13be f967 25bd 3f09 6cbe 22d9 07bc
000001e0: 5ea7 3bbe 89d1 51be a93e f8bd 71ae 633e
000001f0: 4d81 9c3d e0ef c3bd cd61 88be 3faa 40be
00000200: 3570 773d 9aac a1bd c8d3 b03d d7d6 5b3e
00000210: e2a9 e2bc e0ee 0f3e 3747 82bd a6b9 5abe
00000220: 27be 483e 7c89 c73d 3fca 163e bcef 7f3d
00000230: 9458 593e 8e0f 973a 4f46 ab3d def4 9abc
00000240: 3eeb a1ba af1f 363e 6fb5 643e 5f04 86bc
00000250: 7ff4 283e 2fa9 473e 7ea4 243e b282 47bd
00000260: a2d6 12bc 0fae 8ebd afe2 063e 7360 b53d
00000270: 8996 4e3e 8136 623e 315b 213d d534 42bd
00000280: 7a97 b93d 0539 843e 9a98 31be 3eb9 693d
00000290: 8a32 2abe b595 1fbe 1566 d03c c121 f63c
000002a0: fbe7 5b3e 73e2 423e bd54 c7bd 3265 333e
000002b0: d7ef 933c e002 523e 4c5f 8abd 4e40 153e
000002c0: 957e 423e d595 78be 93e3 c53d 4712 253e
000002d0: a771 35bd a7ef 28bd b589 52be 3dbf fcbd
000002e0: a360 8c3d 3772 613e 6d55 46bd 9e6d 9d3d
000002f0: 8dc4 efbd 5476 fe3d 4f41 513e 63f5 af3d
00000300: 00e9 463e 90e7 343e e377 213e b838 363e
00000310: 6139 61be 5d7f 413d d83c 40be 0efa e8bd
00000320: 934e 61be b87f 3bbe 767a c5bd f5f0 083d
00000330: ba55 973d ad14 673e ad71 a0bd e227 75be
00000340: c094 bcbd e913 4d3d bbe6 513e e232 603e
00000350: 13ea a43d 92fa 453d 26a7 5ebc 0648 5c3d
00000360: 2d3c 65bd f318 38be 7031 243c 7bb0 42be
00000370: 507b 58be a746 d93d 6845 a43d 1aef 6c3e
00000380: c084 72bd 1740 98bb bf8d 74be d099 1f3e
00000390: 5fa8 7cbe bdf7 79be 296b 823d 4f77 ac3d
000003a0: 3dfe 22bd e07e bfbd 4ef2 adba e1d4 0cbe
000003b0: 45f8 d53d 63cf fe3d a610 153e 9b52 1b3e
000003c0: 407a 68bd 114f f2bd 7b43 303e e447 d23b
000003d0: b7cb be3d 8685 f93d 3ae5 7abd ac3e a6bd
000003e0: f541 15be 37d6 a3bd c051 9c3d 36ab a0bb
000003f0: ee97 c5bd 4722 3dbd 579b 6abe 2e86 443e

LSTMLayerList.0.Wh f4 [50, 50]
0.1234889 0.16441996 -0.18980066 0.07439068 0.072662964 0.1705887 0.054711152 0.1920259
-0.21892679 -0.0034596294 0.009390369 -0.09067474 -0.049780335 -0.17495105 -0.04661716 0.066010214
-0.06795393 0.16200513 -0.19305873 0.13320394 0.14755774 0.14988711 0.11359481 0.123296104
0.121116295 0.05744089 0.02339888 0.14197029 0.039590098 0.019115265 0.18764363 0.09846078
0.049297266 -0.067900926 0.123838685 0.22078456 0.049571104 -0.0800065 0.20425004 0.090708956
-0.23559287 -0.0138123585 -0.24122435 -0.16376089 -0.1622697 0.24604493 -0.0362967 -0.14316075
-0.06553988 -0.03526736 0.20446204 -0.17990659 0.1837922 -0.19103678 0.008168166 -0.0672098
-0.16919374 0.041351777 0.21759054 0.106507786 0.23009649 -0.16096537 -0.022217937 -0.17770164
0.19691746 0.24699886 0.008250237 -0.14113025 -0.08145923 -0.021095034 0.15992361 -0.07445037
0.028075166 0.014470732 -0.15747544 -0.00059419253 0.13129526 -0.22629714 0.1265784 -0.07395246
-0.13712248 -0.086002536 -0.03639934 -0.08224347 0.20845664 0.23703063 -0.16043891 0.016128574
0.14698428 -0.015784072 -0.03946885 -0.0025316905 -0.12602523 0.085901655 0.07777634 0.15293911
-0.1724527 -0.07572806 0.005953346 0.09536132 0.07923685 -0.036476564 -0.17474338 -0.027074633
0.22773072 -0.028120602 0.047795147 0.10952049 0.11055728 0.1632473 -0.161349 -0.10715354
0.12555298 0.10150737 0.014329581 0.28916454 0.16971968 -0.2527523 -0.0016122983 0.0853926
0.20393792 0.18783656 -0.014726478 0.1603465 0.21579033 -0.03496004 0.029481879 0.21167128
0.032714386 0.20900548 0.20807172 0.23101954 0.048818026 -0.073621936 0.07917342 -0.12740758
-0.15530464 0.033226844 0.13880162 -0.24948438 -0.06971316 0.22405517 0.017656311 -0.13756156
-0.22732721 0.108319126 -0.117215395 0.20893343 -0.22654924 0.2068959 0.14019755 -0.11061619
-0.20642336 -0.14351062 0.17579286 -0.019367145 -0.027498664 0.067297556 -0.15944359 -0.21000463
0.14933695 -0.12020945 0.14023261 0.21490832 0.027300375 0.10829869 0.018592423 0.13580239
-0.1454827 -0.22878069 0.2333478 0.2051671 -0.11171278 0.18864234 -0.121614896 0.053551927
-0.12788968 0.124066494 0.124901995 0.052998517 0.1285345 0.12208408 0.17957081 -0.15858404
0.2546677 -0.12356959 -0.18134362 0.006640193 0.16153257 -0.026876604 -0.16637449 0.08797313
0.013877756 -0.061017368 -0.2191542 -0.0012544831 -0.05428857 0.14997849 0.0383591 -0.04937987
0.12133633 -0.192579 -0.1994618 -0.06209572 -0.19580542 0.1194138 -0.10648413 -0.13839358
0.074481405 0.19499575 0.035168026 0.11058674 0.16818453 0.16788103 0.11236413 0.16028401
-0.10864519 -0.14584272 -0.028800324 0.027004175 0.04946916 0.19978444 0.14051959 -0.17482954
-0.067356765 0.23348078 -0.042452827 0.17412855 -0.20769778 -0.22069249 -0.18093204 0.054429147
0.12409131 0.07053632 -0.078086674 -0.10975176 0.21401657 0.061493054 0.20963213 0.21833377
-0.1217023 0.1385563 0.05222891 0.05079171 0.12508012 -0.085249916 0.11745788 0.07790044
-0.08827582 -0.11054292 0.08832832 -0.04770685 0.0346694 0.0047263713 0.094327755 -0.12471075
00000000: c0e7 fc3d b55d 283e 1b5b 42be 245a 983d
00000010: 52d0 943d ceae 2e3e cd18 603d 70a2 443e
00000020: 582e 60be f3ba 62bb 10da 193c aeb3 b9bd
00000030: 77e6 4bbd 5e26 33be a3f1 3ebd 5d30 873d
00000040: 6e2b 8bbd ace4 253e 30b1 45be 9d66 083e
00000050: 6019 173e 027c 193e 65a4 e83d ab82 fc3d
00000060: d20b f83d 2447 6b3d 02af bf3c a960 113e
00000070: 3a29 223d 9e97 9c3c a725 403e cea5 c93d
00000080: eeeb 493d a40f 8bbd 239f fd3d 5915 623e
00000090: 120b 4b3d 73da a3bd ec26 513e 9ec5 b93d
000000a0: 423f 71be 3b4d 62bc 8403 77be efb0 27be
000000b0: 072a 26be 34f3 7b3e d9ab 14bd bb98 12be
000000c0: c639 86bd 8274 10bd 7f5e 513e 6f39 38be
000000d0: 0634 3c3e 259f 43be c5d3 053c 4ba5 89bd
000000e0: 2041 2dbe 7b60 293d 0ed0 5e3e c120 da3d
000000f0: 6a9e 6b3e 1bd4 24be 6402 b6bc 6bf7 35be
00000100: bba4 493e 45ed 7c3e 012c 073c 7384 10be
00000110: 19d4 a6bd 7ecf acbc 04c3 233e 7079 98bd
00000120: e4fd e53c a616 6d3c 3e41 21be 96c3 1bba
00000130: 4472 063e 70ba 67be c59d 013e 6374 97bd
00000140: d669 0cbe 1922 b0bd 7917 15bd 446f a8bd
00000150: a875 553e 28b8 723e 194a 24be 1220 843c
00000160: 0c83 163e 994d 81bc 17aa 21bd b8ea 25bb
00000170: c20c 01be 35ed af3d 3449 9f3d 129c 1c3e
00000180: 7197 30be 5017 9bbd 4914 c33b cc4c c33d
00000190: ee46 a23d 7368 15bd eeef 32be 9fcb ddbc
000001a0: 3e32 693e 2d5d e6bc d8c4 433d 474c e03d
000001b0: db6b e23d 4d2a 273e ac38 25be 5173 dbbd
000001c0: f690 003e 19e3 cf3d 9ec6 6a3c 600d 943e
000001d0: ffca 2d3e c068 81be c153 d3ba 51e2 ae3d
000001e0: 1ad5 503e 3a58 403e 5347 71bc df31 243e
000001f0: 24f8 5c3e 4232 0fbd fb83 f13c 5bc0 583e
00000200: 85ff 053d 8805 563e c110 553e 6390 6c3e
00000210: 69f5 473d 19c7 96bd ad25 a23d 2277 02be
00000220: 2e08 1fbe df18 083d 0322 0e3e d578 7fbe
00000230: c6c5 8ebd b86e 653e f8a3 903c f0dc 0cbe
00000240: 77c8 68be 6bd6 dd3d a00e f0bd a5f2 553e
00000250: 86fc 67be 85dc 533e f28f 0f3e be8a e2bd
00000260: a560 53be 73f4 12be 0b03 343e d9a7 9ebc
00000270: e144 e1bc 4dd3 893d 2e45 23be 740b 57be
00000280: c9eb 183e 5f30 f6bd 2399 0f3e ed10 5c3e
00000290: 09a5 df3c b4cb dd3d 234f 983c c80f 0b3e
000002a0: 6bf9 14be 7c45 6abe baf2 6e3e 5317 523e
000002b0: acc9 e4bd 752b 413e 3b11 f9bd 4459 5b3d
000002c0: 83f5 02be 9316 fe3d 9ecc ff3d f914 593d
000002d0: 8c9e 033e 3807 fa3d 69e1 373e db63 22be
000002e0: ce63 823e 0e12 fdbd 24b2 39be fa95 d93b
000002f0: cb68 253e 532c dcbc 135e 2abe 422b b43d
00000300: 875f 633c 59ed 79bd f569 60be 786d a4ba
00000310: b15d 5ebd f693 193e 6f1e 1d3d 8c42 4abd
00000320: 2f7f f83d 6e33 45be b73f 4cbe 1558 7ebd
00000330: 3781 48be 398f f43d 5a14 dabd 0cb7 0dbe
00000340: b589 983d f7ac 473e 590c 103d 4d7b e23d
00000350: 9138 2c3e 01e9 2b3e 2a1f e63d 7e21 243e
00000360: 5f81 debd cb57 15be a8ee ebbc dc37 dd3c
00000370: 2da0 4a3d 4b94 4c3e 5ee4 0f3e 8406 33be
00000380: 58f2 89bd 9615 6f3e 04e3 2dbd c14e 323e
00000390: baae 54be 36fd 61be 4046 39be 19f1 5e3d
000003a0: 9623 fe3d 5975 903d e8eb 9fbd 88c5 e0bd
000003b0: 2927 5b3e 24e0 7b3d cea9 563e e392 5f3e
000003c0: 0e3f f9bd b4e1 0d3e fbed 553d f80a 503d
000003d0: 0115 003e 8297 aebd c28d f03d 448a 9f3d
000003e0: f4c9 b4bd 5464 e2bd 7ae5 b43d 4268 43bd
000003f0: 8001 0e3d addf 9a3b e92e c13d 5a68 ffbd

LSTMLayerList.0.bz f4 [50]
-0.0005323811 0.000654637 -0.0054272446 -0.006836055 -0.038000107 -0.0012232594 -0.00342388 -0.005815386
0.007441223 -0.017591778 -0.0027519937 0.019797193 -0.017150022 0.0065944693 0.01608599 -0.005388726
0.01945194 0.008570491 0.010951501 0.014344017 0.0032633313 0.008043006 -0.007649893 -0.00240535
0.014939707 -0.0058928295 -0.013072692 -0.006120599 0.0018597263 0.009563821 -0.009078676 0.013726545
0.0079077305 0.0031749592 0.042455994 -0.020606838 -0.0013051883 0.01096262 0.04367942 0.009051914
0.0050744643 -0.0045512747 0.018258704 0.016925354 -0.007986799 -0.015670555 -0.006548466 0.02123533
0.00023045938 -0.007164103
00000000: 7e8f 0bba f29b 2b3a 07d7 b1bb fc00 e0bb
00000010: 00a6 1bbd c655 a0ba 2d63 60bb fe8e bebb
00000020: 81d5 f33b a21c 90bc cb5a 34bb b92d a23c
00000030: 347e 8cbc 6b16 d83b c4c6 833c e993 b0bb
00000040: ad59 9f3c 3f6b 0c3c ed6d 333c 2b03 6b3c
00000050: 9ddd 553b d0c6 033c f4ab fabb 14a3 1dbb
00000060: acc5 743c a318 c1bb d82e 56bc 4e8f c8bb
00000070: 0fc2 f33a 93b1 1c3c babe 14bc 4de5 603c
00000080: 6d8f 013c fa12 503b 56e6 2d3d accf a8bc
00000090: da12 abba 909c 333c 31e9 323d 7b4e 143c
000000a0: b147 a63b dc22 95bb 4793 953c 0aa7 8a3c
000000b0: 10db 02bc 895f 80bc 8494 d6bb b7f5 ad3c
000000c0: 78a7 7139 dac0 eabb

LSTMLayerList.0.bg f4 [50]
0.007079 -0.0026255555 -0.006687428 -0.016509786 -0.03510872 -0.0024529442 -0.010373029 0.016769769
0.06786098 -0.013393787 -0.018251274 -0.0047372435 -0.014353633 -0.0071870345 0.007580248 -0.0020223958
-0.010452544 -0.02308622 -0.018291542 -0.0004547368 0.003303085 -0.011903867 -0.0063529196 0.00053987995
0.0041684695 -0.00836709 -0.035194427 -0.006567863 0.0006974957 -0.027529065 -0.0011202642 -0.008010646
-0.020566193 0.004456966 -0.0150079345 -0.0074635306 -0.0067870873 0.0032733514 0.001267853 0.0014500408
0.0077690543 -0.005340314 0.015951095 -0.00952562 -0.0028133588 0.004524581 -0.005617062 -0.023594886
-0.011916209 0.0031894648
00000000: f5f6 e73b 8311 2cbb 3622 dbbb 883f 87bc
00000010: 29ce 0fbd 93c1 20bb a3f3 29bc c160 893c
00000020: b3fa 8a3d 9d71 5bbc b283 95bc e13a 9bbb
00000030: 802b 6bbc 3781 ebbb bb63 f83b 2c8a 04bb
00000040: 2641 2bbc 501f bdbc 25d8 95bc bd69 eeb9
00000050: 9278 583b 7008 43bc 272c d0bb bb86 0d3a
00000060: a897 883b 1e16 09bc 0828 10bd 3a37 d7bb
00000070: 25d8 363a a284 e1bc d4d5 92ba 163f 03bc
00000080: 6f7a a8bc be0b 923b d7e3 75bc a290 f4bb
00000090: 3766 debb b985 563b 162e a63a 4c0f be3a
000000a0: 8d93 fe3b cdfd aebb dfab 823c 5911 1cbc
000000b0: 5460 38bb f042 943b 550f b8bb 104a c1bc
000000c0: 343c 43bc 5706 513b

LSTMLayerList.0.br f4 [50]
-0.002333176 -0.010935598 0.004234901 0.023389928 -0.011879163 0.0037851483 0.014819384 -0.007891082
0.0014460288 -0.0027546883 -0.0111657195 -0.0036650072 -0.012606114 -0.00011243776 -0.011473148 -0.014856567
-0.007486733 -0.045581948 0.0015126519 -0.008824239 -0.0047974004 0.0008227873 0.0067344634 -0.0037215494
0.008988166 0.00077531306 -0.009272088 -0.008038496 -0.003999178 -0.006110977 0.0032803158 -0.004222288
0.0005629873 0.050205603 0.01730661 -0.003196062 -0.004348815 0.009371631 -0.00089061767 -0.0023665468
0.006566734 0.0035923994 -0.00023910427 -0.0017608745 5.3350715e-05 0.028776303 -0.029302744 0.00393112
0.012972815 0.0030651558
00000000: 33e8 18bb 392b 33bc edc4 8a3b 3c9c bf3c
00000010: d2a0 42bc 4010 783b 00cd 723c 9949 01bc
00000020: ad88 bd3a 0088 34bb 6cf0 36bc 9e30 70bb
00000030: e089 4ebc 90cc ebb8 dff9 3bbc f568 73bc
00000040: 4553 f5bb 23b4 3abd 2d44 c63a 8a93 10bc
00000050: 8333 9dbb 52b0 573a c6ac dc3b 3de5 73bb
00000060: 1a43 133c 613e 4b3a f5e9 17bc e5b3 03bc
00000070: 890b 83bb 973e c8bb 91fa 563b 1e5b 8abb
00000080: 7095 133a 64a4 4d3d 97c6 8d3c 0675 51bb
00000090: 8180 8ebb 788b 193c 5778 69ba 1118 1bbb
000000a0: c22d d73b 766e 6b3b 10b8 7ab9 25cd e6ba
000000b0: e5c4 5f38 48bc eb3c 4f0c f0bc a0d0 803b
000000c0: ee8b 543c c8e0 483b

LSTMLayerList.0.bh f4 [50]
-0.0027790533 0.018704578 0.005996172 -0.020180209 -0.09645802 -0.007700015 0.051660907 0.0039203
0.0022390247 0.02253125 -0.041409455 -0.07187342 -0.0123365475 0.0051598274 0.016690126 -0.043175884
0.03605597 -0.041278094 -0.032637984 0.0016768086 0.0065081124 0.028527277 -0.0024885493 0.020656297
-0.002479841 -0.0095291035 -0.12975867 -0.008320132 -0.01478152 0.042678 -0.033137567 0.032565482
-0.008778993 -0.0022998762 0.023937631 -0.0007644246 0.00096122193 0.0033044755 -0.011308846 0.03364565
-0.004621728 -0.02938577 -0.06313541 -0.02317108 0.017207438 -0.017323315 0.029215153 -0.037081305
0.031233579 -0.0011256096
00000000: c720 36bb 583a 993c 897b c43b f750 a5bc
00000010: c88b c5bd 6850 fcbb 639a 533d dc75 803b
00000020: 9abc 123b 7593 b83c f69c 29bd 5f32 93bd
00000030: 3b1f 4abc c513 a93b bbb9 883c 32d9 30bd
00000040: 6daf 133d 3813 29bd 68af 05bd 5cc8 db3a
00000050: 0142 d53b 09b2 e93c ee16 23bb 6537 a93c
00000060: d484 22bb f51f 1cbc 75df 04be 2a51 08bc
00000070: 302e 72bc 20cf 2e3d 42bb 07bd 6263 053d
00000080: c4d5 0fbc 85b9 16bb da18 c43c ab63 48ba
00000090: 83fa 7b3a e68f 583b bd48 39bc 05d0 093d
000000a0: dd71 97bb 6dba f0bc 234d 81bd 47d1 bdbc
000000b0: 9df6 8c3c a0e9 8dbc 9e54 ef3c 91e2 17bd
000000c0: 90dd ff3c 3189 93ba

LSTMLayerList.1.Uz f4 [2, 50]
0.35587898 -0.20307873 -0.17588885 -0.21313933 0.011230084 0.041609406 0.29789937 -0.17056133
0.28869623 -0.22683044 -0.017511886 0.2345043 -0.03544909 -0.13922079 -0.23314105 0.021950996
0.2183322 -0.28733817 0.31126478 -0.120239474 -0.2146768 0.004523111 -0.04519984 0.11319267
0.282552 0.09607269 0.33815363 0.08578791 -0.34474763 -0.2402561 0.16233008 0.32416967
-0.2785387 -0.17381749 0.047218844 0.17637376 -0.0081671225 -0.20706084 -0.30820358 -0.17373767
0.08212302 -0.08099577 -0.35088614 -0.028208297 -0.19145223 0.04275075 -0.33277792 -0.019543333
-0.14978176 -0.041065507 -0.16056523 0.043528408 0.18038595 -0.042881906 0.06624338 -0.24048342
0.3316958 0.33671066 0.042961486 0.2531756 -0.32603875 -0.10137508 -0.01761286 -0.18104102
0.2785344 -0.10890798 0.039456487 0.01947903 0.17081752 -0.20147586 0.21326846 0.06443385
-0.25464708 -0.2136956 -0.29457948 -0.17079167 0.0959748 -0.012441357 0.12796105 0.037914816
-0.2632574 -0.19261052 0.0726631 -0.14755933 0.25670132 -0.07820069 0.11791204 -0.04076893
-0.15525515 0.10347879 -0.19066921 0.011366394 0.14188437 0.01830823 -0.26902273 0.13409024
0.13287959 0.23060462 0.31067875 -0.09048792
00000000: c535 b63e dff3 4fbe 351c 34be 3241 5abe
00000010: 63fe 373c a06e 2a3d 4486 983e a1a7 2ebe
00000020: fecf 933e 3d46 68be 1675 8fbc e521 703e
00000030: 1133 11bd e58f 0ebe 87bc 6ebe 93d2 b33c
00000040: 7a92 5f3e fd1d 93be 195e 9f3e 1d40 f6bd
00000050: 3cd4 5bbe 9b36 943b 7823 39bd 8fd1 e73d
00000060: a8aa 903e c2c1 c43d 7922 ad3e 92b1 af3d
00000070: c382 b0be b205 76be db39 263e 91f9 a53e
00000080: a09c 8ebe 36fd 31be 8c68 413d 539b 343e
00000090: 65cf 05bc c207 54be dccc 9dbe 4ae8 31be
000000a0: 1d30 a83d 1ce1 a5bd 59a7 b3be 1615 e7bc
000000b0: 0e0c 44be 691b 2f3d de61 aabe 5719 a0bc
000000c0: 6460 19be 4e34 28bd 366b 24be d84a 323d
000000d0: 18b7 383e f0a4 2fbd 9caa 873d 4941 76be
000000e0: 08d4 a93e 5765 ac3e 62f8 2f3d 3ba0 813e
000000f0: 8dee a6be bd9d cfbd d848 90bc d162 39be
00000100: 109c 8e3e 260b dfbd 209d 213d 7d92 9f3c
00000110: caea 2e3e b04f 4ebe 0c63 5a3e e5f5 833d
00000120: 1a61 82be 05d3 5abe 1fd3 96be 03e4 2ebe
00000130: 708e c43d d5d6 4bbc 3908 033e 914c 1b3d
00000140: adc9 86be b13b 45be 64d0 943d cb19 17be
00000150: 5b6e 833e af27 a0bd de7b f13d 52fd 26bd
00000160: 35fb 1ebe b0ec d33d ca3e 43be 1d3a 3a3c
00000170: 234a 113e 24fb 953c 59bd 89be f44e 093e
00000180: 9611 083e 9e23 6c3e 4911 9f3e bb51 b9bd

LSTMLayerList.1.Ug f4 [2, 50]
-0.042077236 0.024446813 -0.07134321 -0.028881285 -0.2892484 0.15439615 -0.2889871 -0.21623915
0.16873328 0.24989803 0.0007349495 -0.22497138 -0.31753588 -0.33427662 0.015739074 -0.032716237
0.1704965 0.0056240726 -0.3094605 0.36568633 -0.15609889 0.11951133 -0.0007221638 -0.24676077
0.063154034 -0.3294837 0.28177133 -0.04750507 -0.14683731 0.35670507 -0.10553732 -0.18946396
0.07386033 -0.2153388 0.33348295 0.034758743 0.16480838 0.03158511 0.038887806 0.05720324
0.2860232 -0.013753328 0.20603117 0.1166557 -0.1845655 -0.03865435 0.24329397 0.26471817
0.18135358 0.14969933 0.09135314 -0.14055131 0.02390593 0.1568912 0.26947147 0.31177622
-0.2627962 -0.34382954 0.32908604 0.20139903 0.2722154 -0.12162605 -0.046310462 0.06927052
-0.04697984 -0.22460939 0.184112 0.16723067 0.19051085 -0.20023693 -0.076507546 -0.28419617
0.20413582 -0.15777439 -0.27459538 -0.2964987 -0.101915166 -0.2709415 -0.20995253 0.32742673
0.18989843 -0.27792627 0.32996565 -0.25815886 -0.10258349 0.22985782 -0.06651674 0.07071834
0.20113452 -0.21654557 0.13294761 0.08125741 -0.011162633 -0.14736481 -0.2537532 0.18455781
0.29821265 -0.28180227 -0.31200257 0.11917072
00000000: 2e59 2cbd af44 c83c 641c 92bd 7298 ecbc
00000010: 5e18 94be 061a 1e3e 1ef6 93be cc6d 5dbe
00000020: 6bc8 2c3e 45e5 7f3e a0a9 403a e65e 66be
00000030: 1094 a2be 4e26 abbe 3bef 803c 7601 06bd
00000040: a296 2e3e 244a b83b 9b71 9ebe 3d3b bb3e
00000050: 63d8 1fbe 5bc2 f43d 984f 3dba dbae 7cbe
00000060: e756 813d 16b2 a8be 5544 903e ad94 42bd
00000070: 855c 16be 0ca2 b63e f323 d8bd d702 42be
00000080: 1644 973d c681 5cbe 47be aa3e 2f5f 0e3d
00000090: 87c3 283e 635f 013d d248 1f3d f24d 6a3d
000000a0: a271 923e a355 61bc d6f9 523e 2fe9 ee3d
000000b0: bdfe 3cbe 0654 1ebd 0e22 793e 2489 873e
000000c0: c1b4 393e c84a 193e 5b17 bb3d afec 0fbe
000000d0: 5ed6 c33c 16a8 203e 2af8 893e 22a1 9f3e
000000e0: 398d 86be 6d0a b0be f77d a83e 8c3b 4e3e
000000f0: d15f 8b3e 1417 f9bd 0ab0 3dbd b4dd 8d3d
00000100: ef6d 40bd 0100 66be db87 3c3e 843e 2b3e
00000110: 4715 433e e90a 4dbe fdaf 9cbd 2982 91be
00000120: fb08 513e 9c8f 21be c497 8cbe adce 97be
00000130: e6b8 d0bd d8b8 8abe ccfd 56be 7aa4 a73e
00000140: bc74 423e 5a4c 8ebe 42f1 a83e 662d 84be
00000150: 4b17 d2bd d95f 6b3e ee39 88bd c7d4 903d
00000160: 35f6 4d3e 1fbe 5dbe 6b23 083e 496a a63d
00000170: 7ae3 36bc cde6 16be f0eb 81be b9fc 3c3e
00000180: 54af 983e 6348 90be cdbe 9fbe c70f f43d
