Saved Weights/2D_gaussian_centered_initial.pth (torch, 143142 bytes, 39 tensors)

initial_layer.W f4 [3, 50]
0.26012686 -0.3178649 0.26035905 0.006262652 0.043180678 0.37475213 -0.18329255 0.2642303
0.03416712 -0.066504695 0.13901345 -0.13974713 -0.1469852 0.034294315 -0.04125115 -0.17961152
0.3076634 -0.11863571 0.09633299 0.11933689 0.17072567 -0.26138356 0.18838793 -0.12023995
0.036512826 0.16021535 0.26039976 -0.24814145 -0.32048243 0.14175242 -0.1352511 -0.12773661
0.2926817 0.016422862 0.1413607 0.30649918 -0.26901793 -0.21758544 0.043968704 -0.2693658
0.07117064 0.09560491 -0.12174859 -0.03471997 0.0100013185 -0.027763974 0.20321566 0.07907457
0.31463918 0.094343655 -0.21197194 -0.02512954 0.0027907821 0.3226299 0.19000793 -0.13023613
0.06112061 0.19028299 0.029720694 -0.15425985 -0.2923734 0.18479338 0.2307658 -0.14354487
-0.108590186 -0.18330577 -0.08828342 -0.15265974 0.1782157 0.14304699 0.28259125 -0.08808792
0.22073688 0.09884383 0.1914978 -0.26059988 0.104275696 0.3218285 -0.054577146 0.14323796
-0.07836584 0.13897558 -0.31055185 -0.17460619 -0.23592101 0.030975932 -0.26664618 0.04906033
-0.069247685 -0.11242835 0.30092695 -0.014406965 -0.16864972 -0.12439479 -0.0026097011 0.024323126
0.06982892 0.27620432 -0.29487583 0.17414145 0.2644982 -0.03228528 0.13152415 -0.07568244
-0.030390503 0.25011775 0.1968836 -0.24554737 0.23646416 -0.2790702 -0.23420757 -0.07454975
0.26707333 -0.20539246 -0.17970626 -0.2849146 0.08942553 0.057710502 -0.15661503 0.011751739
-0.16404752 -0.07608234 -0.06155015 -0.1351861 -0.26597574 -0.19015294 -0.035421576 0.25379038
0.26620016 -0.20036794 -0.30483198 -0.27000144 0.17845458 0.18085432 -0.16309558 0.108305655
-0.14131737 0.12154297 -0.32784528 0.2695733 -0.050863672 0.364469 0.3107648 0.022622777
-0.10794324 -0.040665574 0.2441094 0.13723186 -0.23379816 0.34450006
00000000: 592f 853e 30bf a2be c84d 853e ef36 cd3b
00000010: 39de 303d 83df bf3e 0bb1 3bbe 3249 873e
00000020: d2f2 0b3d 9d33 88bd 8b59 0e3e df19 0fbe
00000030: 4a83 16be 3278 0c3d f7f6 28bd 15ec 37be
00000040: 0f86 9d3e 47f7 f2bd 3b4a c53d e666 f43d
00000050: b6d2 2e3e 11d4 85be c4e8 403e 5d40 f6bd
00000060: 798e 153d 7e0f 243e 1e53 853e cb18 7ebe
00000070: 4616 a4be 8c27 113e 447f 0abe 63cd 02be
00000080: 60da 953e 3d89 863c dcc0 103e 76ed 9c3e
00000090: b8bc 89be b8ce 5ebe 8718 343d 50ea 89be
000000a0: eac1 913d 82cc c33d 5357 f9bd 8736 0ebd
000000b0: 92dc 233c 4671 e3bc c417 503e d9f1 a13d
000000c0: 6318 a13e 3f37 c13d 2c0f 59be 77dc cdbc
000000d0: 8ee5 363b bf2f a53e 7091 423e 9f5c 05be
000000e0: 9b59 7a3d 8bd9 423e d078 f33c 4bf6 1dbe
000000f0: f7b1 95be 7a3a 3d3e df4d 6c3e 6dfd 12be
00000100: 8864 debd 82b4 3bbe f0cd b4bd d652 1cbe
00000110: 2d7e 363e e97a 123e cdaf 903e 7067 b4bd
00000120: d908 623e a26e ca3d 0018 443e 596d 85be
00000130: 7f8e d53d b5c6 a43e 498c 5fbd f9ac 123e
00000140: 457e a0bd 9d4f 0e3e a700 9fbe f7cb 32be
00000150: 4795 71be 3dc1 fd3c d985 88be 7cf3 483d
00000160: bbd1 8dbd d640 e6bd 1913 9a3e 310b 6cbc
00000170: 83b2 2cbe b2c2 febd 8507 2bbb 4b41 c73c
00000180: 7702 8f3d a76a 8d3e f7f9 96be 2352 323e
00000190: 4f6c 873e 923d 04bd 44ae 063e 65ff 9abd
000001a0: 81f5 f8bc 6f0f 803e db9b 493e c570 7bbe
000001b0: a923 723e 4ae2 8ebe 1cd4 6fbe 8aad 98bd
000001c0: d6bd 883e 6752 52be eb04 38be 54e0 91be
000001d0: bb24 b73d d961 6c3d b15f 20be 5e8a 403c
000001e0: 13fc 27be 0fd1 9bbd 031c 7cbd 3a6e 0abe
000001f0: f92d 88be 74b7 42be 3716 11bd d0f0 813e
00000200: 634b 883e 412d 4dbe f012 9cbe a13d 8abe
00000210: ccbc 363e e031 393e 8702 27be 5bcf dd3d
00000220: 80b5 10be 85eb f83d 56db a7be 8305 8a3e
00000230: 6d56 50bd ae9b ba3e 901c 9f3e 6753 b93c
00000240: 5811 ddbd f290 26bd d1f7 793e 8286 0c3e
00000250: c968 6fbe 5062 b03e

initial_layer.b f4 [50]
-0.011116481 0.018939385 0.0037235299 -0.0033224747 0.011264467 0.012085863 -0.0046453155 0.0183153
0.014164675 0.03407256 -0.0048539713 -0.011108282 -0.012729251 0.0068040974 -0.0026884773 -0.027517762
0.013667139 0.017279558 0.009843063 -0.004853828 0.0030482723 -0.010681323 -0.002154614 -0.004179874
-0.005508301 -0.004188208 -0.003272606 -0.008450864 0.016836803 -0.0013480565 -0.01755247 -0.0050487164
0.008975539 0.002095251 0.0040446995 0.020581001 -0.025887392 0.00882045 -0.033616155 -0.01686629
0.0064695016 0.020290116 -0.01849882 0.0010481328 -0.01451317 0.00078324217 0.0038835013 0.02223771
-0.020514602 0.008177133
00000000: e721 36bc c526 9b3c 7706 743b e0bd 59bb
00000010: 998e 383c c903 463c bb37 98bb f809 963c
00000020: f412 683c ab8f 0b3d 100e 9fbb 83ff 35bc
00000030: 598e 50bc e8f4 de3b 2a31 30bb ee6c e1bc
00000040: 23ec 5f3c dc8d 8d3c cc44 213c dc0c 9fbb
00000050: 86c5 473b b700 2fbc 6d34 0dbb 53f7 88bb
00000060: fa7e b4bb 3c3d 89bb 3879 56bb 7e75 0abc
00000070: 56ed 893c 45b1 b0ba 33ca 8fbc b46f a5bb
00000080: 240e 133c 7b50 093b 6689 843b 7d99 a83c
00000090: cc11 d4bc a683 103c 18b1 09bd 2c2b 8abc
000000a0: 1dfe d33b 7537 a63c d68a 97bc 8061 893a
000000b0: a6c8 6dbc 7e52 4d3a 5782 7e3b dc2b b63c
000000c0: 3d0e a8bc 62f9 053c

LSTMLayerList.0.Uz f4 [3, 50]
0.23041877 0.05588269 -0.0150322 -0.3015875 0.16793893 -0.092075616 0.14367689 -0.07307293
-0.20740739 0.21441409 -0.26276472 0.3133815 0.2594753 0.18393165 -0.13891698 0.10226006
0.064384975 -0.26389897 0.08449065 -0.21731214 -0.16821316 -0.18961807 -0.24385573 -0.043964066
-0.1641887 -0.0906453 -0.28792462 0.13162547 -0.16787791 -0.117910065 -0.30013472 -0.1199679
0.26838237 0.09590013 0.020589432 0.30067548 0.025528627 0.03360822 -0.24189162 0.08302604
-0.23823015 -0.046941806 0.2739671 0.18060477 0.23943456 0.14814906 -0.15894161 -0.00042498542
0.09507328 -0.24971707 -0.01798412 -0.05281108 -0.16906649 0.22250852 0.10565935 0.2708181
0.2854989 0.18848799 -0.25647503 0.042330973 0.3095177 -0.15365134 0.016171398 0.27324048
-0.27444786 0.10140001 0.13558093 0.18181872 -0.15128204 -0.10766482 -0.11230013 0.0019117644
0.2714651 0.21958722 -0.03772657 -0.058192994 -0.11868941 -0.084037684 0.15814778 -0.118509255
0.041849647 -0.25007963 0.23469129 -0.058526583 0.15609354 -0.25012204 0.115279734 -0.27992922
-0.10006556 0.32913977 -0.16032812 -0.21259835 0.18401124 -0.23462805 -0.24329095 -0.30696094
0.21365704 -0.3276495 0.040464755 0.20071973 -0.1390723 0.2548315 0.1651231 -0.12705572
0.05414585 0.040653054 -0.2390132 0.032351624 -0.2976158 -0.10130769 -0.22574528 -0.25918263
0.31948167 0.2808459 -0.3232909 -0.19897819 0.109878846 -0.046262816 -0.17200473 0.14429641
-0.18061264 -0.13175224 -0.3110649 -0.31265026 -0.29092327 -0.14854366 -0.19573528 0.029179985
-0.0077771773 -0.32982352 0.28360957 -0.09255875 -0.16443148 0.27272615 -0.15167148 0.024044646
0.1741583 0.0012311914 -0.1367446 0.12678103 0.33693707 -0.05972688 -0.022853473 -0.28667995
0.31179926 -0.29618442 0.0078596845 -0.018484382 0.014785189 0.005153952
00000000: e6f2 6b3e 3fe5 643d 9e49 76bc ad69 9abe
00000010: 2ff8 2b3e 2492 bcbd 0920 133e 43a7 95bd
00000020: 9a62 54be 5e8f 5b3e 1989 86be 8a73 a03e
00000030: f2d9 843e 9458 3c3e 4140 0ebe b96d d13d
00000040: 45dc 833d c41d 87be 6f09 ad3d 1387 5ebe
00000050: 1240 2cbe 3d2b 42be 51b5 79be aa13 34bd
00000060: 1521 28be 3ea4 b9bd db6a 93be d4c8 063e
00000070: 30e8 2bbe d57a f1bd 42ab 99be bbb1 f5bd
00000080: 6a69 893e 4a67 c43d 2bab a83c 23f2 993e
00000090: 6921 d13c c6a8 093d 70b2 77be 8e09 aa3d
000000a0: 9bf2 73be 0d46 40bd 6a45 8c3e 75f0 383e
000000b0: 552e 753e 63b4 173e 97c1 22be 94d0 deb9
000000c0: c8b5 c23d d5b5 7fbe 6f53 93bc 6e50 58bd
000000d0: c41f 2dbe 46d9 633e ee63 d83d aca8 8a3e
000000e0: e92c 923e ff02 413e b250 83be 3e63 2d3d
000000f0: 1b79 9e3e c756 1dbe e179 843c 2de6 8b3e
00000100: 6e84 8cbe cfaa cf3d bad5 0a3e b02e 3a3e
00000110: aee9 1abe 607f dcbd 9cfd e5bd 2b94 fa3a
00000120: 79fd 8a3e 79db 603e 2d87 1abd c75b 6ebd
00000130: 6f13 f3bd f31b acbd 7ef1 213e fbb4 f2bd
00000140: 896a 2b3d 700a 80be ea52 703e 92b9 6fbd
00000150: fcd6 1f3e ff0f 80be c817 ec3d e252 8fbe
00000160: 2cef ccbd 0285 a83e 0e2d 24be 62b3 59be
00000170: 716d 3c3e 5642 70be 4321 79be fc29 9dbe
00000180: e9c8 5a3e adc1 a7be 5fbe 253d 7989 4d3e
00000190: f868 0ebe 4679 823e 0816 293e e51a 02be
000001a0: 0ac8 5d3d d183 263d e0bf 74be 2383 043d
000001b0: 1961 98be 687a cfbd c529 67be 96b3 84be
000001c0: 1a93 a33e 09cb 8f3e 6386 a5be f0c0 4bbe
000001d0: 2908 e13d 147e 3dbd 0222 30be 70c2 133e
000001e0: 85f2 38be 0fea 06be e643 9fbe b213 a0be
000001f0: e5f3 94be d41b 18be d46e 48be dd0a ef3c
00000200: b1d7 febb a1de a8be 4635 913e 718f bdbd
00000210: ba60 28be c3a2 8b3e c54f 1bbe 47f9 c43c
00000220: 8e56 323e ee5f a13a c706 0cbe e3d2 013e
00000230: 0483 ac3e 2ca4 74bd 3537 bbbc b7c7 92be
00000240: 27a4 9f3e 7ca5 97be e8c5 003c 8f6c 97bc
00000250: 943d 723c 7ce2 a83b

LSTMLayerList.0.Ug f4 [3, 50]
-0.0442505 -0.115058884 0.17681602 -0.06909165 -0.13740142 -0.053360242 -0.14580919 -0.25330335
-0.17545985 -0.056256354 0.057008095 0.14618643 0.093906075 -0.28747773 0.45336077 -0.08609589
-0.30667207 -0.31128335 0.09480682 0.047776453 0.003706308 -0.044095445 0.0790143 -0.22365889
-0.25491938 -0.16295658 -0.094862156 0.32000557 -0.12389476 -0.3258636 -0.3054833 0.23770767
0.012522476 0.24734566 0.16268767 0.07630538 0.096443415 -0.29647142 0.10244683 -0.20498541
0.0073945406 -0.048054054 0.31363675 -0.13032894 -0.026900956 -0.13694067 0.22815774 0.18251939
0.2613938 0.21101703 0.17992431 -0.05613955 0.0010718973 -0.07133621 -0.3220579 -0.23264891
0.19703685 0.082995735 -0.03443112 0.13467303 0.116791025 0.13854714 0.091291405 0.27110162
0.22136475 0.28416076 -0.12744442 0.2533378 -0.25572363 -0.16401593 0.09604136 -0.13651493
-0.16387746 -0.24408104 0.031798627 -0.1368625 -0.049514886 -0.12095743 -0.30187115 -0.12086074
-0.1948641 -0.20877415 0.13891274 -0.13406055 0.0037065826 0.08224709 0.017005606 0.0077432725
-0.1991868 -0.20877656 0.17574234 0.013375125 -0.18594494 -0.26909626 0.13875815 -0.08227636
0.12211189 -0.3299942 0.3368048 -0.15296875 -0.10524268 -0.26065755 -0.1909058 -0.13590136
0.32618558 0.2739987 0.23831862 -0.16297637 -0.3009027 -0.04245862 0.22972146 0.19085488
0.28741547 0.046949815 0.22996862 -0.21281105 0.14520076 0.20597833 -0.06761587 0.0021120077
0.17897101 0.08072924 -0.26881045 -0.13815069 -0.0768679 0.22202261 -0.17479113 -0.10519402
-0.24498056 0.26309735 -0.12669405 0.09409186 0.054485444 -0.19524997 -0.14703888 -0.25250387
-0.066416614 -0.3048037 -0.15012203 -0.17392394 0.07840463 -0.26030672 0.25136065 -0.13245721
-0.04067641 0.11776431 0.06852583 0.06609241 -0.2525841 0.13298374
00000000: 0340 35bd fea3 ebbd 420f 353e ec7f 8dbd
00000010: f5b2 0cbe 4590 5abd 014f 15be fab0 81be
00000020: bfab 33be 106d 66bd 5281 693d e5b1 153e
00000030: d451 c03d 4830 93be e71e e83e 0b53 b0bd
00000040: 1f04 9dbe 8860 9fbe 142a c23d 3eb1 433d
00000050: 88e5 723b 6d9d 34bd 40d2 a13d d606 65be
00000060: cb84 82be 17de 26be 1747 c2bd c5d7 a33e
00000070: 89bc fdbd 98d7 a6be 4f68 9cbe a469 733e
00000080: 122b 4d3c 2e48 7d3e 9997 263e ff45 9c3d
00000090: 2084 c53d 1acb 97be a5cf d13d b2e7 51be
000000a0: e74d f23b 54d4 44bd ff94 a03e f374 05be
000000b0: 655f dcbc 2d3a 0cbe 2fa2 693e 5de6 3a3e
000000c0: 68d5 853e d914 583e 143e 383e 96f2 65bd
000000d0: e87e 8c3a b818 92bd c6e4 a4be 843b 6ebe
000000e0: 07c4 493e abf9 a93d a507 0dbd bae7 093e
000000f0: 2230 ef3d 4ddf 0d3e fdf6 ba3d d5cd 8a3e
00000100: 71ad 623e 857d 913e ca80 02be 7eb5 813e
00000110: 35ee 82be cbf3 27be 55b1 c43d 92ca 0bbe
00000120: 7ecf 27be 61f0 79be 473f 023d af25 0cbe
00000130: 1fd0 4abd 87b8 f7bd db8e 9abe d685 f7bd
00000140: 748a 47be e4c8 55be 243f 0e3e 2b47 09be
00000150: 23ea 723b 2a71 a83d 574f 8b3c 47bb fd3b
00000160: a0f7 4bbe 86c9 55be cdf5 333e 5723 5b3c
00000170: 5a68 3ebe fcc6 89be 9e16 0e3e 8280 a8bd
00000180: cc15 fa3d 00f5 a8be ae71 ac3e d7a3 1cbe
00000190: 7989 d7bd e874 85be cf7c 43be ba29 0bbe
000001a0: cc01 a73e 8f49 8c3e cc09 743e 47e3 26be
000001b0: eb0f 9abe 17e9 2dbd 1a3c 6b3e 766f 433e
000001c0: 1f28 933e 734e 403d e57c 6b3e 24eb 59be
000001d0: 82af 143e fceb 523e 307a 8abd 9c69 0a3b
000001e0: 2d44 373e 5f55 a53d 86a1 89be 6077 0dbe
000001f0: eb6c 9dbd e559 633e 72fc 32be f66f d7bd
00000200: 2fdc 7abe b2b4 863e 16bc 01be 3cb3 c03d
00000210: 212c 5f3d 9cef 47be 5c91 16be 3048 81be
00000220: 6f05 88bd 3b0f 9cbe 97b9 19be 1e19 32be
00000230: 9b92 a03d ec46 85be 58b2 803e dda2 07be
00000240: 4f9c 26bd 6a2e f13d 4557 8c3d 755b 873d
00000250: b452 81be e42c 083e

LSTMLayerList.0.Ur f4 [3, 50]
0.21759458 -0.13385272 -0.27337113 -0.11018529 0.22725563 -0.358623 -0.035485722 -0.28289393
0.03800685 0.21288961 -0.1503763 0.23006631 0.30901825 -0.339462 0.15181266 0.15852831
-0.18363808 0.33685693 0.08279167 -0.2621795 -0.24098665 -0.2771571 0.2432291 0.18226945
-0.31900927 0.2768622 -0.16403887 -0.07214889 0.2377862 0.18845972 -0.16107179 0.119994424
0.1296381 -0.32692167 0.15257123 -0.24646269 0.2705191 -0.32111564 0.018390724 0.31488934
-0.13011709 0.15853737 0.14846261 0.02817827 0.28983447 -0.08255458 -0.24213637 0.043080833
0.058425028 -0.13629085 -0.11307827 -0.13416353 0.0045413147 0.3310785 -0.01591635 -0.29673466
-0.016376508 -0.077122614 -0.20768331 -0.030362293 -0.3450436 -0.123858966 -0.23219135 -0.26029682
0.23540692 0.25753042 0.002513173 -0.28481475 -0.26305175 0.16965021 -0.21476181 -0.1895705
0.05203969 0.32112563 -0.04741974 0.021907726 -0.21539788 0.23915958 -0.27595502 -0.27469403
0.11988882 -0.22307877 -0.31752434 -0.285242 0.10641191 -0.0139056295 -0.09225342 -0.13623692
-0.1987708 -0.27986208 -0.1125986 0.038035315 -0.23499489 -0.11019377 0.16925287 -0.12506059
0.04453691 0.2379823 0.004358621 -0.32283637 0.15028483 -0.11468474 -0.016061645 -0.33706978
-0.13315977 0.29362118 -0.23158108 0.0025326635 0.25568378 0.01678164 0.09117174 0.037598636
-0.08663411 -0.14670792 -0.26144102 -0.07922276 0.19189379 -0.10310276 -0.24356145 -0.18741895
0.07208715 0.2897392 0.18822768 -0.2183769 0.27652758 -0.07598312 0.10633988 -0.3233141
-0.17846043 -0.08554596 0.045612756 -0.21491355 0.111511834 -0.129846 -0.2891873 -0.21089345
0.16504027 -0.15716451 -0.19743384 -0.1410041 0.2616871 0.079655565 -0.0018210831 -0.13320896
-0.21899018 -0.237009 0.077044606 -0.13291858 0.22936444 -0.2726252
00000000: 1dd1 5e3e b010 09be 4df7 8bbe d3a8 e1bd
00000010: b3b5 683e 6f9d b7be 7a59 11bd 79d7 90be
00000020: 12ad 1b3d bcff 593e 3ffc 19be 8196 6b3e
00000030: a437 9e3e f7cd adbe c774 1b3e 3f55 223e
00000040: 9f0b 3cbe 8378 ac3e ae8e a93d 643c 86be
00000050: 34c5 76be 89e7 8dbe 0d11 793e d8a4 3a3e
00000060: 2f55 a3be e2c0 8d3e cef9 27be ccc2 93bd
00000070: 3a7e 733e 96fb 403e 01f0 24be a3bf f53d
00000080: dabf 043e 4762 a7be a23b 1c3e b760 7cbe
00000090: 7b81 8a3e 4569 a4be 25a8 963c 2d39 a13e
000000a0: 6a3d 05be 9f57 223e 9506 183e 1ed6 e63c
000000b0: 2f65 943e 6012 a9bd 99f2 77be 8775 303d
000000c0: 154f 6f3d d48f 0bbe 9495 e7bd 2a62 09be
000000d0: 4fcf 943b 1f83 a93e 0163 82bc 9bed 97be
000000e0: 0728 86bc 76f2 9dbd efaa 54be 58ba f8bc
000000f0: 8ea9 b0be c5a9 fdbd 92c3 6dbe a045 85be
00000100: 830e 713e 07db 833e 0cb4 243b 3dd3 91be
00000110: b8ae 86be c9b8 2d3e 85ea 5bbe c51e 42be
00000120: 9227 553d 946a a43e 343b 42bd d577 b33c
00000130: 4391 5cbe 40e6 743e fa49 8dbe b2a4 8cbe
00000140: 4588 f53d c36e 64be 8d92 a2be 3d0b 92be
00000150: 7dee d93d 70d4 63bc 5cef bcbd b181 0bbe
00000160: 938a 4bbe 154a 8fbe 189a e6bd ebca 1b3d
00000170: 80a2 70be 45ad e1bd a050 2d3e e20f 00be
00000180: 566c 363d a2b1 733e c3d2 8e3b cf4a a5be
00000190: 44e4 193e d5df eabd b693 83bc 6994 acbe
000001a0: 095b 08be 8455 963e 9723 6dbe 0bfb 253b
000001b0: fce8 823e a679 893c 40b8 ba3d 0701 1a3d
000001c0: 396d b1bd 9a3a 16be 99db 85be 8b3f a2bd
000001d0: ce7f 443e 8a27 d3bd 2c68 79be c1ea 3fbe
000001e0: 6da2 933d b258 943e c2be 403e 329e 5fbe
000001f0: 0695 8d3e 0a9d 9bbd b9c8 d93d 6d89 a5be
00000200: 55be 36be b832 afbd 71d4 3a3d 4c12 5cbe
00000210: 5160 e43d 5af6 04be 5c10 94be 74f4 57be
00000220: 5100 293e bcef 20be 192c 4abe 6163 10be
00000230: dafb 853e 7522 a33d 69b1 eeba ee67 08be
00000240: f63e 60be 7db2 72be 90c9 9d3d cf1b 08be
00000250: 83de 6a3e 8895 8bbe

LSTMLayerList.0.Uh f4 [3, 50]
-0.16764754 -0.14216658 0.07578702 -0.21756427 0.17509277 0.15772656 0.17733352 0.3072142
0.0761436 0.12485947 0.14977624 -0.14932466 -0.31424996 -0.20908466 -0.045794517 -0.035844903
-0.30911085 -0.16377355 0.2864129 0.2839027 -0.050187048 0.28502473 0.2575524 -0.068216376
0.0102453455 -0.25451162 -0.28567898 0.012442512 0.0022745673 0.10230956 -0.19336277 -0.00089353125
0.28096053 -0.18620504 0.34325933 -0.113568686 0.26112163 0.28767443 -0.19015576 -0.057484817
-0.072965674 0.21642454 0.061546873 0.34483194 -0.035630014 0.038839318 -0.16297284 0.23407951
-0.09782934 0.07126618 -0.07171247 0.23364164 -0.20701635 0.14273418 -0.14422664 0.026160376
0.08099848 0.24596769 -0.28579965 0.22156295 0.11268596 0.3330428 0.24262813 -0.18623298
0.017175144 0.09253017 -0.07301692 -0.027358018 0.08842098 0.13486277 0.283244 -0.19193605
-0.06301078 -0.18610358 -0.08735875 0.09134305 -0.29024073 0.18398935 0.21281932 -0.2197244
-0.21966977 0.20843507 -0.09173121 0.22724624 -0.263524 -0.24059904 -0.046518963 -0.13389558
0.29462406 -0.059697982 -0.102041796 -0.28663623 0.28738016 -0.20194985 0.1289744 0.1067362
0.24617107 -0.25157785 -0.11853881 0.19626671 0.14049631 0.10376441 0.31827056 0.03530425
0.18988939 -0.18703146 -0.22705527 0.093258314 -0.07141866 -0.13956155 0.09239673 -0.07608965
-0.2963 0.22456054 -0.22132705 0.00755091 0.15061478 0.27662107 -0.10073442 -0.09972975
-0.14905803 0.18722902 0.1511892 0.16696335 0.18081817 -0.25305614 -0.19013773 -0.25790346
0.1326896 0.1784383 0.22020309 0.005826382 0.28353465 -0.17880206 0.2726317 -0.2680413
0.10952204 -0.15116635 -0.15288612 -0.16622551 -0.29947507 -0.15213138 -0.19727154 0.19567232
-0.17185622 0.14526922 -0.10791375 -0.20844379 0.3206146 0.16236816
00000000: ccab 2bbe 1e94 11be 3a36 9b3d 2bc9 5ebe
00000010: 854b 333e 1283 213e eb96 353e 2e4b 9d3e
00000020: 2df1 9b3d 52b6 ff3d f15e 193e 90e8 18be
00000030: 5fe5 a0be 4a1a 56be 0893 3bbd 1bd2 12bd
00000040: c743 9ebe 41b4 27be b6a4 923e b25b 913e
00000050: ef90 4dbd c3ee 913e e8dd 833e 07b5 8bbd
00000060: 18dc 273c 594f 82be 8444 92be aedb 4b3c
00000070: e810 153b ad87 d13d e400 46be de3b 6aba
00000080: 0fda 8f3e 89ac 3ebe b0bf af3e b396 e8bd
00000090: bcb1 853e 104a 933e 31b8 42be 3375 6bbd
000000a0: 076f 95bd 659e 5d3e 9318 7c3d d08d b03e
000000b0: c7f0 11bd fa15 1f3d 5ae2 26be 8ab2 6f3e
000000c0: c05a c8bd 01f4 913d fddd 92bd c13f 6f3e
000000d0: 18fc 53be e928 123e 26b0 13be 494e d63c
000000e0: 88e2 a53d f4de 7b3e 5554 92be 66e1 623e
000000f0: e6c7 e63d 9684 aa3e 8273 783e dcb3 3ebe
00000100: e3b2 8c3c 7580 bd3d e589 95bd ec1d e0bc
00000110: 0f16 b53d 7719 0a3e 5c05 913e e28a 44be
00000120: cc0b 81bd f091 3ebe 25e9 b2bd 1112 bb3d
00000130: 6f9a 94be b467 3c3e 4fed 593e 6fff 60be
00000140: 1df1 60be 0170 553e 93dd bbbd 3db3 683e
00000150: 9eec 86be 985f 76be ab8a 3ebd ec1b 09be
00000160: f7d8 963e df85 74bd 4afb d0bd fcc1 92be
00000170: 7e23 933e f1cb 4ebe dd11 043e 8298 da3d
00000180: 4514 7c3e d0ce 80be 7ac4 f2bd 24fa 483e
00000190: 44de 0f3e 6f82 d43d 5cf4 a23e 309b 103d
000001a0: 5d72 423e 2d85 3fbe 2d81 68be 37fe be3d
000001b0: f243 92bd 39e9 0ebe 7f3a bd3d e4d4 9bbd
000001c0: a2b4 97be 33f3 653e 8fa3 62be a06d f73b
000001d0: c33a 1a3e 47a1 8d3e d94d cebd 1c3f ccbd
000001e0: aba2 18be f7b8 3f3e 57d1 1a3e 71f8 2a3e
000001f0: 6628 393e 9390 81be 77b3 42be ec0b 84be
00000200: c8df 073e 88b8 363e eb7c 613e 3ceb be3b
00000210: 742b 913e e317 37be 6296 8b3e b63c 89be
00000220: 174d e03d 5acb 1abe 2e8e 1cbe 0537 2abe
00000230: cc54 99be 54c8 1bbe 8d01 4abe 535e 483e
00000240: 14fb 2fbe 74c1 143e e201 ddbd 4a72 55be
00000250: 9927 a43e d743 263e

LSTMLayerList.0.Wz f4 [50, 50]
-0.23872447 -0.09639028 0.088627145 0.24743418 -0.21253903 -0.018459197 -0.016353179 -0.15048341
-0.22402294 0.012025039 0.16714326 -0.10202312 0.09054328 0.15006317 -0.07896038 0.07303306
-0.14636193 -0.2515277 -0.2409706 0.07872563 -0.13538232 0.09648331 -0.07404997 0.14837062
0.20900011 0.05979462 0.014802666 -0.21403174 -0.07647496 -0.07942997 0.021227049 0.17605866
-0.02867761 -0.10712148 0.211033 0.2283851 -0.2508919 0.08423823 0.24129777 -0.036781568
-0.026499389 0.057299692 -0.16448367 -0.085668236 -0.12766208 -0.04873674 0.010342816 0.1641528
-0.11304985 -0.10255874 0.17280023 -0.07097567 -0.2091604 0.05515324 -0.0046638083 -0.05551045
-0.12938957 -0.23477544 0.10025526 0.113781564 0.2290524 0.24029103 0.053004656 0.17133233
0.1440123 -0.022497183 0.20587961 -0.21496819 -0.03688457 -0.013879505 -0.092489906 -0.045360383
-0.14718132 0.021631539 -0.013386561 0.0057928762 0.090091676 -0.11967493 -0.12508325 -0.13100544
0.0043571573 0.090693 0.053218216 0.20471357 0.092659935 -0.13461436 0.00119662 -0.22297685
0.13448708 -0.09697916 0.0738963 0.07076712 -0.11690008 -0.056910366 -0.11670414 -0.075988576
-0.13852721 0.13628553 -0.122408494 0.034134205 -0.09369595 -0.008676246 0.060683783 0.0356749
0.17917445 -0.03631655 -0.023967177 0.053665046 -0.09569235 0.15962999 0.15268846 -0.09621952
0.03075603 0.12555045 -0.010087193 0.18189132 -0.13154437 -0.16950013 -0.055020336 -0.093002655
-0.06898473 0.023159714 -0.012921446 0.074463874 0.04199411 0.19734485 0.07350884 0.019164395
0.057573542 -0.08341438 0.24414842 -0.0438812 -0.11846768 -0.13290869 -0.21594076 0.20090997
-0.1317854 -0.03293736 -0.008386892 0.19153363 -0.07998394 -0.14929232 0.11645365 -0.047426894
-0.113059536 -0.22153373 0.094801165 -0.09063855 0.06583107 -0.006458238 0.09712234 -0.18152107
-0.07003452 -0.2203734 0.1109814 -0.18506058 -0.25648102 -0.03324663 0.08513431 -0.12641414
0.002832845 0.19243087 -0.009683347 -0.09445666 0.11526527 -0.22386104 -0.027457986 0.13324277
-0.07572208 0.20996568 0.07910948 -0.04270073 -0.09783345 0.09844296 0.021015706 -0.23272242
-0.23642348 -0.15596594 0.20761922 -0.22521302 -0.00850933 -0.16647775 0.042009365 -0.22131465
-0.22951232 0.13294455 -0.21363309 0.24989976 -0.12282522 0.05845974 0.17625979 0.1500415
0.021288078 0.017501488 -0.01896938 -0.045306936 -0.015389879 0.032569878 0.1366866 0.0059780725
0.1449902 0.12308574 -0.17921992 -0.028695501 -0.16214341 0.22814433 -0.15088806 -0.060989056
0.19671965 -0.22087534 -0.08148276 0.047252543 -0.006481627 0.13757503 0.02213913 -0.16481403
-0.19518548 0.13348477 -0.26633477 0.17319739 -0.025552966 0.065295205 -0.09283133 -0.15802346
0.20316753 0.003270291 0.19116588 0.073660456 -0.167693 0.05583108 -0.12558 0.14475346
-0.08402802 0.21780233 -0.2147988 0.1324372 0.0020039568 0.10367393 0.15230642 -0.089353755
-0.12615821 -0.2261147 0.011038272 0.19892968 0.01242744 0.12596703 -0.1365243 0.17879069
0.16422112 -0.22440207 0.21025248 -0.15922706 0.21859275 -0.20811822 0.14475352 -0.0067182016
00000000: 3074 74be 4468 c5bd 2682 b53d 635f 7d3e
00000010: d5a3 59be be37 97bc 1af7 85bc 5318 1abe
00000020: 4566 65be ab04 453c 9a27 2b3e 7ff1 d0bd
00000030: c16e b93d 29aa 193e fbb5 a1bd 5b92 953d
00000040: e7df 15be 3dc8 80be ffc0 76be e73a a13d
00000050: aaa1 0abe 0b99 c53d 83a7 97bd 78ee 173e
00000060: 2004 563e 34eb 743d e286 723c 232b 5bbe
00000070: e79e 9cbd 2eac a2bd 59e4 ad3c b948 343e
00000080: 4fed eabc 8262 dbbd 0919 583e c9dd 693e
00000090: e774 80be 1885 ac3d c316 773e 45a8 16bd
000000a0: 3f15 d9bc 15b3 6a3d 686e 28be d472 afbd
000000b0: d9b9 02be 2da0 47bd ea74 293c ac17 283e
000000c0: ae86 e7bd 510a d2bd 8bf2 303e b15b 91bd
000000d0: 252e 56be 5de8 613d dcd2 98bb ed5e 63bd
000000e0: b37e 04be f968 70be a152 cd3d 4f06 e93d
000000f0: b68c 6a3e da0e 763e 691b 593d be71 2f3e
00000100: f677 133e 034c b8bc 1bd2 523e 9f20 5cbe
00000110: 4614 17bd dd66 63bc 596b bdbd cfcb 39bd
00000120: b3b6 16be a034 b13c 4e53 5bbc 2bd2 bd3b
00000130: fc81 b83d 2118 f5bd d315 00be 4a26 06be
00000140: 7cc6 8e3b 40bd b93d 58fb 593d 6fa0 513e
00000150: 7ec4 bd3d 59d8 09be e8d7 9c3a 0b54 64be
00000160: fbb6 093e 039d c6bd f156 973d 5aee 903d
00000170: 4f69 efbd d81a 69bd 9502 efbd e69f 9bbd
00000180: 14da 0dbe 6f8e 0b3e 4eb1 fabd 4fd0 0b3d
00000190: aae3 bfbd d026 0ebc 8f8f 783d d81f 123d
000001a0: 8279 373e aac0 14bd d056 c4bc e1cf 5b3d
000001b0: 5afa c3bd 0b76 233e 5d5a 1c3e bd0e c5bd
000001c0: 12f4 fb3c 4c90 003e c144 25bc b841 3a3e
000001d0: 91b3 06be 7191 2dbe 015d 61bd 2d78 bebd
000001e0: de47 8dbd 71b9 bd3c 79b4 53bc 8480 983d
000001f0: 0402 2c3d c514 4a3e cd8b 963d a6fe 9c3c
00000200: 3cd2 6b3d 29d5 aabd 0b02 7a3e c6bc 33bd
00000210: 2f9f f2bd 3719 08be 931f 5dbe 58bb 4d3e
00000220: c0f2 06be 53e9 06bd 2d69 09bc 6421 443e
00000230: 9fce a3bd 16e0 18be 407f ee3d b442 42bd
00000240: c28b e7bd bdd9 62be 1d27 c23d b4a0 b9bd
00000250: 71d2 863d a09f d3bb 14e8 c63d a9e0 39be
00000260: 426e 8fbd 91a9 61be 374a e33d 8580 3dbe
00000270: 7b51 83be 9e2d 08bd e65a ae3d b572 01be
00000280: 41a7 393b 990c 453e e7a6 1ebc 7e72 c1bd
00000290: 3310 ec3d d43b 65be 92ef e0bc cb70 083e
000002a0: 2e14 9bbd 3e01 573e 2704 a23d f6e6 2ebd
000002b0: e75c c8bd 769c c93d 2129 ac3c c94e 6ebe
000002c0: ff18 72be 89b5 1fbe 229a 543e 3e9e 66be
000002d0: b86a 0bbc 2579 2abe 0312 2c3d 4fa0 62be
000002e0: 4705 6bbe 9e22 083e a2c2 5abe b9e5 7f3e
000002f0: ca8b fbbd 7b73 6f3d 727d 343e 7ba4 193e
00000300: 5664 ae3c 485f 8f3c ac65 9bbc c493 39bd
00000310: d525 7cbc fe67 053d 92f7 0b3e b5e3 c33b
00000320: 5078 143e 6014 fc3d 6d85 37be d412 ebbc
00000330: ec08 26be ab9e 693e 6682 1abe a9cf 79bd
00000340: e070 493e 252d 62be 6fe0 a6bd e28b 413d
00000350: d463 d4bb 78e0 0c3e 1f5d b53c 02c5 28be
00000360: b4de 47be 3bb0 083e 085d 88be a85a 313e
00000370: 7454 d1bc 7eb9 853d 5a1e bebd e7d0 21be
00000380: 260b 503e 6152 563b fdc0 433e 4bdb 963d
00000390: b7b7 2bbe 21af 643d 0b98 00be 403a 143e
000003a0: e216 acbd 9307 5f3e 37f4 5bbe 9e9d 073e
000003b0: d154 033b ff52 d43d 37f6 1b3e 1aff b6bd
000003c0: 9e2f 01be 9d8a 67be ded9 343c 39b4 4b3e
000003d0: 769c 4b3c 80fd 003e 07cd 0bbe e814 373e
000003e0: 9529 283e a8c9 65be 6d4c 573e 6b0c 23be
000003f0: c7d6 5f3e f11c 55be 443a 143e 5c24 dcbb

LSTMLayerList.0.Wg f4 [50, 50]
0.10333816 -0.1761559 -0.17818528 -0.13240786 0.0013314163 -0.00035078745 0.017187733 0.16610968
-0.053872213 0.09299397 -0.14664541 0.22989035 0.124099165 -0.012072889 0.0038844256 -0.01917112
-0.06159462 -0.06005788 -0.001078202 0.08409071 0.11561965 0.08958803 -0.18772797 -0.04982134
-0.030931234 -0.097630456 0.2463955 0.14381976 -0.021667061 -0.13206996 -0.055103663 -0.21071874
0.019469356 -0.13939522 0.22488575 -0.123803355 -0.10425137 0.13670114 -0.1998371 -0.18250217
-0.16260865 0.2391249 -0.1165476 0.0006209795 0.1961611 -0.21177883 -0.08470001 0.20205519
-0.16494559 0.04087618 0.17684543 -0.06516082 0.08723178 -0.13525009 -0.2293222 0.14942618
0.11173292 0.06646911 -0.14294384 -0.16502978 -0.21986693 0.08757376 -0.15299575 0.20989023
-0.2612648 -0.027058803 0.18166544 -0.05944911 0.22680168 -0.048755124 0.13624437 -0.23542435
0.16188249 0.08063839 -0.26103 -0.08330778 0.1372751 -0.22388183 -0.017311879 -0.16642359
0.03847755 -0.10464799 0.09806068 0.1482797 -0.24395807 -0.15667993 -0.04754807 0.12870692
0.01994539 -0.21148847 -0.12816148 0.19723918 0.10249748 -0.067185976 0.09882921 0.022923337
0.23397142 0.13152847 0.0139165055 -0.12104354 -0.13016987 0.0065978104 0.077139296 0.07183189
-0.08803044 0.1675692 -0.18141837 -0.2059029 -0.16673708 -0.0475823 0.058765605 0.123425655
-0.08196988 -0.1686246 0.038577475 -0.037263267 0.15296946 -0.09677917 0.052261926 -0.17072174
-0.18304197 0.17804131 -0.1928258 -0.052247077 0.0763115 -0.21173112 0.056910347 0.18204316
-0.056216832 0.16410792 0.18155213 0.2269828 -0.16680758 -0.16120073 0.25193706 0.0047997464
0.18683259 0.06769719 -0.1539834 0.09665274 -0.016135864 -0.10952064 -0.17484005 -0.14193442
-0.012511263 0.057667192 -0.18357347 -0.022318132 -0.2258461 0.15775849 0.21667252 0.0955305
-0.07791157 -0.033091564 -0.22066794 -0.08500988 0.21865457 -0.20779425 0.041677874 -0.078531586
-0.15883431 0.010185098 -0.15844303 0.22959596 -0.22232321 0.086006 -0.07335403 0.067642346
-0.057644226 -0.25421 0.14012393 -0.2356819 0.08357002 -0.19292009 -0.15516143 0.24804148
0.081525706 0.04612213 -0.033587523 -0.02424434 -0.2196527 0.047790088 0.14739029 0.20201905
-0.022507088 -0.16455053 -0.16229638 -0.23610465 0.24017929 -0.005223386 0.02930947 -0.028506272
0.0033549971 0.08321472 -0.021551123 -0.0460736 -0.20136848 -0.13590947 0.0728733 0.16633128
0.12021328 -0.023702838 -0.094449826 0.0833588 -0.23264249 -0.050596204 0.21643795 0.076614924
-0.04049201 -0.10171579 -0.13377586 -0.09783334 0.09526638 -0.0073280055 -0.11751143 0.09923668
0.1384533 0.20295407 -0.11155106 -0.089433655 -0.028344374 -0.17528017 -0.22936712 -0.21892692
0.22798711 0.09628383 -0.042111076 0.07422695 0.015947152 -0.21632129 0.04072474 -0.16683044
0.13860185 0.1394575 -5.195662e-05 -0.081874564 0.11086393 -0.18282416 0.033889357 -0.095413096
0.0650525 0.14190315 0.07410686 0.053017005 -0.2615976 -0.23214388 -0.05265199 0.18153264
-0.13117757 -0.10854162 0.114446044 0.21797709 0.14274286 0.0025122496 -0.16805752 -0.0685854
00000000: f5a2 d33d 3662 34be 3476 36be ed95 07be
00000010: eb82 ae3a e5e9 b7b9 4acd 8c3c a818 2a3e
00000020: 1ca9 5cbd 9f73 be3d 372a 16be 6068 6b3e
00000030: b427 fe3d 5ecd 45bc d991 7e3b c10c 9dbc
00000040: a44a 7cbd 40ff 75bd 7552 8dba c037 ac3d
00000050: ffc9 ec3d ee79 b73d c33b 40be 7611 4cbd
00000060: 8063 fdbc 7af2 c7bd 1a4f 7c3e 7d45 133e
00000070: 1f7f b1bc 593d 07be 61b4 61bd a7c6 57be
00000080: 337e 9f3c 9fbd 0ebe 7348 663e 9d8c fdbd
00000090: be81 d5bd 62fb 0b3e 19a2 4cbe d9e1 3abe
000000a0: e282 26be 28dd 743e 82b0 eebd 3bc9 223a
000000b0: 75de 483e 8ddc 58be 3377 adbd 8ee7 4e3e
000000c0: 7fe7 28be c86d 273d f816 353e 0973 85bd
000000d0: 93a6 b23d 007f 0abe 70d3 6abe 2d03 193e
000000e0: 3bd4 e43d f520 883d df5f 12be 91fd 28be
000000f0: cc24 61be df59 b33d ebaa 1cbe 77ed 563e
00000100: 80c4 85be 6caa ddbc 8106 3a3e e980 73bd
00000110: b33e 683e 74b3 47bd a583 0b3e 1513 71be
00000120: 86c4 253e bd25 a53d b9a5 85be 459d aabd
00000130: d891 0c3e 4741 65be a4d1 8dbc f26a 2abe
00000140: a39a 1d3d af51 d6bd 0ad4 c83d a2d6 173e
00000150: 25d0 79be b470 20be c4c1 42bd bfcb 033e
00000160: 8464 a33c 6f90 58be c33c 03be 11f9 493e
00000170: 33ea d13d cd98 89bd f866 ca3d b9c9 bb3c
00000180: 3496 6f3e 66af 063e 0e02 643c ade5 f7bd
00000190: 404b 05be 7232 d83b 35fb 9d3d 991c 933d
000001a0: 4e49 b4bd 4397 2b3e bdc5 39be 36d8 52be
000001b0: 20bd 2abe a8e5 42bd 34b4 703d 97c6 fc3d
000001c0: d3df a7bd edab 2cbe 6a03 1e3d 5ea1 18bd
000001d0: 07a4 1c3e 2834 c6bd 9a10 563d aed1 2ebe
000001e0: 5b6f 3bbe 7650 363e 2074 45be 0801 56bd
000001f0: 3449 9c3d 0bd0 58be d31a 693d 8669 3a3e
00000200: 9f43 66bd e80b 283e cde8 393e 2e6e 683e
00000210: 9bcf 2abe ce11 25be e5fd 803e 3147 9d3b
00000220: 0b51 3f3e d3a4 8a3d d3ad 1dbe dff1 c53d
00000230: 5c2f 84bc 5b4c e0bd 4509 33be 4257 11be
00000240: 0afc 4cbc 6f34 6c3d affa 3bbe 84d4 b6bc
00000250: 3344 67be 718b 213e 67df 5d3e 7fa5 c33d
00000260: 1a90 9fbd 058b 07bd c7f6 61be a919 aebd
00000270: fce6 5f3e 04c8 54be 6bb6 2a3d 2bd5 a0bd
00000280: 76a5 22be 66df 263c e43e 22be 341b 6b3e
00000290: b2a8 63be ea23 b03d a33a 96bd 1288 8a3d
000002a0: 5a1c 6cbd d027 82be a67c 0f3e 9956 71be
000002b0: c226 ab3d d88c 45be a3e2 1ebe 96fe 7d3e
000002c0: f3f6 a63d 8fea 3c3d 1293 09bd 119c c6bc
000002d0: a3ec 60be 8abf 433d 7bed 163e 15de 4e3e
000002e0: c960 b8bc ef7f 28be 0631 26be 6bc5 71be
000002f0: 8ff1 753e f028 abbb 6a1a f03c fc85 e9bc
00000300: 83df 5b3b 7b6c aa3d fb8b b0bc acb7 3cbd
00000310: 8a33 4ebe da2b 0bbe 993e 953d bf52 2a3e
00000320: 6132 f63d 742c c2bc e96e c1bd 05b8 aa3d
00000330: d539 6ebe f73d 4fbd e9a1 5d3e 49e8 9c3d
00000340: f3da 25bd 5e50 d0bd 8afc 08be d95c c8bd
00000350: 051b c33d c41f f0bb d5a9 f0bd 9a3c cb3d
00000360: b4c6 0d3e 31d3 4f3e e274 e4bd fe28 b7bd
00000370: 7632 e8bc a57c 33be 37df 6abe 612e 60be
00000380: 7475 693e 7530 c53d aa7c 2cbd 4d04 983d
00000390: 9aa3 823c 5483 5dbe fcce 263d 99d5 2abe
000003a0: a5ed 0d3e f2cd 0e3e ffeb 59b8 daad a7bd
000003b0: a10c e33d 4236 3bbe 91cf 0a3d f167 c3bd
000003c0: 3f3a 853d 0f4f 113e 56c5 973d 5c28 593d
000003d0: 1ff0 85be 20b7 6dbe 9da9 57bd b1e3 393e
000003e0: 6a53 06be 124b debd b062 ea3d 6335 5f3e
000003f0: 2f2b 123e 8ea4 243b 4517 2cbe 8176 8cbd

LSTMLayerList.0.Wr f4 [50, 50]
-0.11724803 -0.018845525 0.040908378 0.18059714 -0.03846611 0.018186001 0.15801355 -0.15724918
0.21530212 0.20436308 -0.108357996 0.0098369345 0.119429946 0.045672596 -0.12076502 0.060017537
-0.032921158 0.19532283 -0.16625874 -0.050731685 0.1391718 0.10943828 0.118524835 -0.22432937
-0.17435832 -0.20056182 -0.03908075 -0.24505016 0.024521396 -0.17245439 -0.13469386 -0.21659005
0.2509036 -0.0346825 0.13733904 0.024718795 -0.15131111 0.00938389 0.091091596 -0.17345673
-0.17264736 0.21306562 -0.0010955307 0.087368734 0.06120034 -0.13344339 -0.014388365 0.15037979
0.28644332 0.0023517848 0.009180667 0.008647346 -0.066117056 0.19552912 0.02642352 -0.18600133
0.19216542 -0.021450607 0.010295997 0.025465418 0.14918444 0.100097 0.1385054 -0.098046504
0.19087929 0.2004691 0.09245331 -0.22011733 -0.17142393 -0.19790623 -0.13560891 0.058399584
-0.17545944 0.07773958 -0.14832847 -0.04274641 0.22361599 -0.036740933 -0.06969594 0.010409359
0.19946131 -0.09471065 0.18932961 -0.00073848665 -0.03910792 -0.1337513 0.06356745 0.20067683
-0.109963104 -0.038436312 -0.113133214 -0.19605039 0.009312345 0.119102366 -0.20293148 0.13933425
0.018470662 0.12812248 -0.13420324 -0.02104239 0.06183868 0.01608075 -0.18357836 0.16550854
0.19870278 0.05016066 0.077076994 -0.2070773 -0.25195777 0.068200216 -0.09176631 -0.13436408
-0.17699984 -0.056442272 -0.11585885 -0.101543196 0.0087336395 0.06617301 -0.005916084 0.20711608
-0.15496513 -0.17779765 0.19533095 0.2425738 -0.1166213 -0.038732305 -0.10203331 0.048163176
-0.14656036 -0.02614092 0.042963177 0.22222959 0.03560093 -0.14722967 -0.013942887 -0.04520432
-0.22234419 -0.19226663 -0.21183616 0.0792536 -0.22096531 0.20533082 -0.028314004 -0.2244812
-0.2260812 -0.13804562 -0.1499567 0.08657731 -0.13005199 0.0074746013 0.01663684 0.07434088
-0.12420603 0.21767673 0.059303742 -0.07465827 -0.17355101 0.09260662 -0.06301432 -0.14331934
-0.058068074 -0.12454658 -0.09150439 0.023034902 -0.19143905 -0.18222737 -0.1819855 0.06525998
-0.18781842 -0.07330635 0.24344058 -0.17982686 0.16532826 0.012852979 0.12515694 -0.2090501
-0.1793971 0.07446074 -0.18055463 -0.10763703 0.008044023 -0.060022883 0.120810986 0.15703222
0.18646367 0.16329028 -0.21876387 -0.09819113 0.24155267 0.115593016 -0.06461561 0.020115785
-0.065407544 0.19823888 -0.06992034 -0.059621867 -0.14643507 -0.053981088 0.025329215 -0.16033308
0.15520303 0.022378316 -0.04200739 0.03782738 0.1737367 0.12821446 0.23021458 -0.1522158
-0.030720541 0.085371 0.023163572 0.14975956 -0.028148832 -0.09765051 -0.06273833 -0.07256964
0.042187884 0.029913269 0.13744523 -0.036682617 -0.19678834 0.17529278 -0.16194747 -0.22246367
0.19287562 -0.111063 0.17299925 0.013462321 0.1815075 -0.05646394 -0.23014219 0.15518662
0.25184336 -0.09439886 -0.22351387 -0.040038846 0.13509004 -0.20606531 -0.17067343 -0.09100016
0.09444656 -0.22227575 -0.0052697873 -0.16083084 0.016334588 -0.13851616 -0.07368969 0.16048597
0.06474101 0.072416544 0.22572683 0.09100004 0.09881357 0.030215407 0.20007053 0.13143273
00000000: bc1f f0bd ee61 9abc 8b8f 273d 75ee 383e
00000010: a48e 1dbd cffa 943c 4ece 213e ee05 21be
00000020: 2978 5c3e 8e44 513e ccea ddbd 182b 213c
00000030: b097 f43d 3013 3b3d a753 f7bd f3d4 753d
00000040: 56d8 06bd b502 483e bb3f 2abe 07cc 4fbd
00000050: 0d83 0e3e 2d21 e03d 26bd f23d 99b6 65be
00000060: fd8a 32be 1460 4dbe 2313 20bd 6eee 7abe
00000070: 18e1 c83c e297 30be 30ed 09be c8c9 5dbe
00000080: 7076 803e 3d0f 0ebd 9ba2 0c3e 127f ca3c
00000090: 4df1 1abe e3be 193c 3b8e ba3d a49e 31be
000000a0: 78ca 30be e02d 5a3e e997 8fba 61ee b23d
000000b0: 35ad 7a3d 62a5 08be 2dbd 6bbc 29fd 193e
000000c0: b3a8 923e 6720 1a3b 826a 163c 99ad 0d3c
000000d0: 6168 87bd c938 483e 2376 d83c 2277 3ebe
000000e0: 03c7 443e 2fb9 afbc 8bb0 283c da9c d03c
000000f0: cec3 183e a8ff cc3d 5cd4 0d3e 9bcc c8bd
00000100: dc75 433e c647 4d3e 2958 bd3d 7066 61be
00000110: c189 2fbe eea7 4abe 10dd 0abe 6734 6f3d
00000120: a4ab 33be ee35 9f3d 6be3 17be dc16 2fbd
00000130: 97fb 643e a97d 16bd bfbc 8ebd 048c 2a3c
00000140: 963f 4c3e a8f7 c1bd 9fdf 413e 0097 41ba
00000150: a02f 20bd 1af6 08be a72f 823d 3a7e 4d3e
00000160: 5634 e1bd 656f 1dbd 63b2 e7bd 6fc1 48be
00000170: ce92 183c f1eb f33d 45cd 4fbe a3ad 0e3e
00000180: c94f 973c 8a32 033e 936c 09be 1761 acbc
00000190: 8e4a 7d3d c7bb 833c f7fb 3bbe 127b 293e
000001a0: be78 4b3e 4475 4d3d 8bda 9d3d 120c 54be
000001b0: 9c00 81be 8eac 8b3d faef bbbd bd96 09be
000001c0: 723f 35be 0330 67bd 6847 edbd e1f5 cfbd
000001d0: 8a17 0f3c b785 873d b6db c1bb 3d16 543e
000001e0: 2eaf 1ebe 9610 36be d604 483e 4465 783e
000001f0: 26d7 eebd c4a5 1ebd d7f6 d0bd c046 453d
00000200: eb13 16be 7c25 d6bc 28fa 2f3d 2790 633e
00000210: 48d2 113d 60c3 16be b570 64bc 2a28 39bd
00000220: 32ae 63be 8be1 44be 94eb 58be b64f a23d
00000230: bb44 62be 3e42 523e c5f2 e7bc 66de 65be
00000240: d581 67be d55b 0dbe 408e 19be 724f b13d
00000250: 592c 05be 80ed f43b fb49 883c 0840 983d
00000260: bb5f febd a6e6 5e3e 7be8 723d 6fe6 98bd
00000270: 5bb7 31be 8aa8 bd3d a70d 81bd 4ec2 12be
00000280: cad8 6dbd 4712 ffbd a766 bbbd b1b3 bc3c
00000290: 9908 44be d099 3abe 685a 3abe 06a7 853d
000002a0: 7953 40be a421 96bd 7d48 793e 8824 38be
000002b0: d04b 293e 4d95 523c 2429 003e 3b11 56be
000002c0: e0b3 37be df7e 983d 50e3 38be ce70 dcbd
000002d0: 14cb 033c 8eda 75bd c06b f73d 0ecd 203e
000002e0: 55f0 3e3e 9135 273e a303 60be 6e18 c9bd
000002f0: 9559 773e 08bc ec3d 3055 84bd dcc9 a43c
00000300: 64f4 85bd 22ff 4a3e 6532 8fbd 0f36 74bd
00000310: 13f3 15be 461b 5dbd 377f cf3c 5b2e 24be
00000320: 8bed 1e3e bb52 b73c f10f 2cbd e2f0 1a3d
00000330: 09e8 313e a74a 033e 5fbd 6b3e 75de 1bbe
00000340: a5a9 fbbc fed6 ae3d 88c1 bd3c 925a 193e
00000350: 6198 e6bc fefc c7bd f47c 80bd 649f 94bd
00000360: 34cd 2c3d ac0c f53c 71be 0c3e 8340 16bd
00000370: e282 49be f37f 333e 8fd5 25be 84cd 63be
00000380: 3081 453e 0075 e3bd b726 313e 1191 5c3c
00000390: 1add 393e bb46 67bd 65aa 6bbe 3ee9 1e3e
000003a0: 9df1 803e 3154 c1bd d2e0 64be c6ff 23bd
000003b0: 0b55 0a3e c902 53be 04c5 2ebe 4b5e babd
000003c0: 336d c13d 419c 63be 2eae acbb d7b0 24be
000003d0: 1dd0 853c 2ed7 0dbe 9fea 96bd 6f56 243e
000003e0: ef96 843d 204f 943d ef24 673e 3b5e ba3d
000003f0: c55e ca3d 4d86 f73c 4adf 4c3e 4d96 063e

LSTMLayerList.0.Wh f4 [50, 50]
-0.18615542 0.07065728 -0.15870662 -0.100122035 0.15312652 0.24828248 -0.06799301 -0.04615854
0.096769005 0.2589579 -0.10309653 -0.15477143 0.11032873 0.081589125 0.2231608 -0.14618282
0.15929714 0.06521757 0.03513172 0.020921485 -0.2158477 -0.17646535 0.13296239 0.04985241
0.029011445 -0.023270277 0.1524121 -0.17483877 0.24389991 -0.11454047 0.24156843 0.08204155
0.17790183 0.084421456 0.10209082 -0.2691084 -0.19743939 -0.04033482 -0.17783448 0.009157632
0.22876137 -0.020606548 -0.05298588 -0.10158348 0.19686414 -0.2100297 0.16750842 0.15006822
-0.16382541 0.02312787 -0.015653385 -0.17953704 0.18019159 -0.10183207 0.033350848 0.07826134
-0.17961548 -0.12504674 -0.23874934 -0.11539807 -0.040447235 0.18047146 -0.01999342 0.106286764
0.087468855 -0.027500046 0.025089864 -0.1775292 0.1200465 0.13659297 0.12124936 -0.020857044
0.16423751 -0.23276673 0.06472569 0.21441647 0.020463737 0.23823012 -0.11585108 -0.19662324
0.10336479 0.12558848 0.20263357 -0.06512517 -0.18336535 -0.057767224 -0.0797481 -0.24093601
-0.09893174 -0.05560468 0.06811907 0.09103668 -0.027346449 -0.08015721 0.19285771 0.22965944
-0.1385271 -0.059307326 -0.2093755 -0.007913222 0.16322726 -0.23846659 0.2152829 -0.06249625
0.16633569 -0.21969983 0.059713952 0.01744465 0.0340858 -0.2646815 0.22657101 0.01153955
-0.1396507 -0.07169902 0.2702857 -0.054825597 0.12340127 0.030956171 0.1231081 -0.06326678
-0.17841151 -0.08989077 0.08179105 -0.23863238 0.081040815 -0.124718465 -0.21062869 -0.15076876
-0.10753256 0.21424271 -0.15203644 0.2096969 0.18593128 -0.009456746 -0.17889404 0.11714858
0.18552354 -0.2066686 -0.16124563 -0.21448363 0.0967766 -0.23812228 -0.028299391 -0.20738061
0.030884847 0.21829873 0.054599915 0.1311809 0.11534063 0.042245276 -0.11100522 -0.13056636
-0.10432797 -0.08586394 -0.031896785 0.083015546 -0.11805776 -0.18109682 -0.19629313 0.099911705
0.14750119 0.08280138 0.0041115345 0.12274964 -0.19949932 0.020395309 -0.22510402 0.1770126
0.04065267 -0.10745398 -0.20571448 0.09894806 0.16459508 -0.2338951 0.11467011 0.21464989
0.041956447 0.06027182 0.12120162 -0.015834488 -0.06504958 -0.11560584 -0.07154926 -0.1099396
-0.13878876 -0.16631593 -0.101581134 0.15789968 -0.1404358 -0.2078224 0.06298823 -0.15577322
-0.030828848 0.1546655 -0.15783204 -0.14751261 -0.005295129 0.24092078 -0.21996889 0.21381202
0.048645012 0.17658643 0.19169419 0.119752936 0.203824 0.12667952 -0.0010148123 -0.24691096
-0.17366001 0.17654167 -0.0880006 0.013887648 -0.18722917 -0.091718554 -0.18123949 -0.17767362
-0.22307931 -0.1955954 -0.23961309 -0.2320027 -0.22548304 0.19180283 -0.23110884 -0.015185411
-0.17874241 0.069203 -0.07871715 -0.06843822 0.094597146 0.24340807 -0.12539266 -0.12621373
-0.13057667 0.07522997 0.13451868 -0.19313422 0.2339135 0.021523796 0.161492 0.23470591
0.2668563 0.0074413507 0.15190612 0.21146396 -0.18015334 -0.012451919 -0.0018350179 0.10976302
-0.15355058 0.03908353 0.13435723 -0.21888784 -0.09706328 0.0010114254 0.09202549 0.022066312
00000000: 879f 3ebe c4b4 903d fd83 22be c80c cdbd
00000010: 33cd 1c3e c33d 7e3e eb3f 8bbd bd10 3dbd
00000020: d42e c63d 2196 843e 4624 d3bd 677c 1ebe
00000030: 07f4 e13d 3318 a73d 4484 643e f3b0 15be
00000040: ca1e 233e ca90 853d 47e6 0f3d 8963 ab3c
00000050: 2e07 5dbe 55b3 34be 4b27 083e 0a32 4c3d
00000060: 69a9 ed3c 4fa1 bebc eb11 1c3e ef08 33be
00000070: e6c0 793e 3294 eabd b75d 773e 6605 a83d
00000080: e62b 363e 28e5 ac3d fe14 d13d 94c8 89be
00000090: 8d2d 4abe 2036 25bd 3e1a 36be e409 163c
000000a0: 6c40 6a3e 10cf a8bc b907 59bd 000b d0bd
000000b0: c196 493e 0712 57be 5487 2b3e 7cab 193e
000000c0: d9c1 27be a976 bd3c 873b 80bc 8fd8 37be
000000d0: 2584 383e 558d d0bd e69a 083d 7b47 a03d
000000e0: 1fed 37be 410c 00be b57a 74be d355 ecbd
000000f0: 00ac 25bd 83cd 383e 3ec9 a3bc e0ac d93d
00000100: df22 b33d c747 e1bc 4289 cd3c 37ca 35be
00000110: f0da f53d 07df 0b3e 9651 f83d 64dc aabc
00000120: e12d 283e 675a 6ebe e78e 843d fe8f 5b3e
00000130: 91a3 a73c 99f2 733e 5543 edbd 9a57 49be
00000140: ebb0 d33d 449a 003e 2d7f 4f3e 5860 85bd
00000150: 20c4 3bbe 539d 6cbd f952 a3bd eeb7 76be
00000160: b99c cabd bcc1 63bd 0382 8b3d 7071 ba3d
00000170: a905 e0bc 7729 a4bd 7e7c 453e d82b 6b3e
00000180: 0cda 0dbe 3dec 72bd 8866 56be 75a6 01bc
00000190: 0c25 273e 9630 74be 1f73 5c3e 11fc 7fbd
000001a0: e753 2a3e fef8 60be 9e96 743d 15e8 8e3c
000001b0: 8d9d 0b3d 5584 87be 3b02 683e 6110 3d3c
000001c0: 9800 0fbe f0d6 92bd e362 8a3e ce90 60bd
000001d0: ceb9 fc3d cc97 fd3c 1920 fc3d 0392 81bd
000001e0: 82b1 36be a718 b8bd 1182 a73d 0c5c 74be
000001f0: baf8 a53d 656c ffbd 0caf 57be 2063 1abe
00000200: 083a dcbd 7162 5b3e 71af 1bbe c9ba 563e
00000210: c564 3e3e 78f0 1abc 0030 37be 98eb ef3d
00000220: e2f9 3d3e efa0 53be 931d 25be 99a1 5bbe
00000230: cf32 c63d 54d6 73be 20d4 e7bc 955b 54be
00000240: 3802 fd3c b489 5f3e 29a4 5f3d 4954 063e
00000250: b537 ec3d 6209 2d3d b456 e3bd 30b3 05be
00000260: e7a9 d5bd 6fd9 afbd 34a6 02bd 0e04 aa3d
00000270: 44c8 f1bd 7271 39be 1101 49be 829e cc3d
00000280: 8d0a 173e c593 a93d 0dba 863b 2a64 fb3d
00000290: 8d49 4cbe 1014 a73c ab81 66be ca42 353e
000002a0: 6a83 263d d510 dcbd d1a6 52be 48a5 ca3d
000002b0: 9d8b 283e 3282 6fbe 2ad8 ea3d 2ecd 5b3e
000002c0: 86da 2b3d 95df 763d 8e38 f83d 54b7 81bc
000002d0: b738 85bd c1c2 ecbd 6b88 92bd 0328 e1bd
000002e0: a41e 0ebe b94e 2abe c509 d0bd 74b0 213e
000002f0: 67ce 0fbe 65cf 54be f9ff 803d 0483 1fbe
00000300: c88c fcbc a260 1e3e b99e 21be 8c0d 17be
00000310: c382 adbb f0b3 763e 863f 61be 8af1 5a3e
00000320: fe3f 473d 13d3 343e 7b4b 443e 0741 f53d
00000330: 3db7 503e 47b8 013e 7303 85ba 3ad6 7cbe
00000340: eed3 31be 57c7 343e a939 b4bd 0489 633c
00000350: 01b9 3fbe f0d6 bbbd d896 39be 13f0 35be
00000360: e76e 64be 294a 48be 225d 75be 1e92 6dbe
00000370: 07e5 66be f667 443e cca7 6cbe 3bcc 78bc
00000380: 4008 37be 4dba 8d3d 7536 a1bd 5629 8cbd
00000390: 26bc c13d f73f 793e ef66 00be 2c3e 01be
000003a0: e4b5 05be 2c12 9a3d 44bf 093e fac4 45be
000003b0: 0587 6f3e ac52 b03c 295e 253e bf56 703e
000003c0: 64a1 883e 93d6 f33b 478d 1b3e 028a 583e
000003d0: 1e7a 38be 2203 4cbc fc84 f0ba 6fcb e03d
000003e0: 5d3c 1dbe 0d16 203d f194 093e 2224 60be
000003f0: 1dc9 c6bd ce91 843a dc77 bc3d 69c4 b43c

LSTMLayerList.0.bz f4 [50]
-0.005949291 -0.011720067 0.0010220662 0.004047984 -0.021508768 -0.006759585 -0.007967362 -0.012169333
0.015634535 0.025485178 -0.004108891 0.009829438 -0.015400802 -0.00826429 0.016210072 -0.009318836
0.0048431833 -0.008355918 -0.008239169 -0.010269261 0.012002322 0.0019971533 -0.0045267725 -0.018602151
0.0022830563 0.019447118 -0.0073190047 -0.0050476794 -0.009558002 0.0077114427 -0.0015910348 -0.0043333275
-0.01896119 0.005856005 -0.00897507 0.0023576873 0.0068322835 0.011266782 0.012617618 0.00025297774
0.0099043995 -0.0093248 0.00654882 0.0027137347 0.022140937 -0.003726186 0.0004861364 -0.008141037
0.00796958 0.0014118102
00000000: 45f2 c2bb 8605 40bc daf6 853a f3a4 843b
00000010: 2833 b0bc 827f ddbb 8a89 02bc e261 47bc
00000020: ff13 803c 4bc6 d03c e0a3 86bb a70b 213c
00000030: a553 7cbc f266 07bc fcca 843c 08ae 18bc
00000040: 91b3 9e3b 43e7 08bc 94fd 06bc 6740 28bc
00000050: 63a5 443c ace2 023b 5255 94bb 8a63 98bc
00000060: 549f 153b 904f 9f3c 43d4 efbb 0167 a5bb
00000070: 2b99 1cbc 45b0 fc3b 458a d0ba 96fe 8dbb
00000080: 7f54 9bbc bbe3 bf3b 2c0c 13bc 6e83 1a3b
00000090: 59e1 df3b 4f98 383c 20ba 4e3c 19a2 8439
000000a0: 1046 223c 0cc7 18bc 7c97 d63b ead8 313b
000000b0: e960 b53c 0733 74bb 20e0 fe39 fc61 05bc
000000c0: d792 023c 7d0c b93a

LSTMLayerList.0.bg f4 [50]
0.018226251 -0.001019612 0.012795155 0.006772656 -0.03283655 0.0045356224 0.0022768765 0.004815263
-0.00020207843 -0.002815821 -0.00086965965 -0.0070914985 -0.00897105 0.004974561 -0.012115986 0.014036238
0.004335199 0.0062962812 0.0056161415 -0.0040277205 -0.010918589 -0.0005266523 0.034945805 0.0199565
0.011113192 0.0028144126 -0.0030959805 0.00028163963 0.0066144504 0.0051586414 0.0006737047 -0.0016815815
-0.0049268184 0.00063720526 0.032814633 0.011947579 0.003529839 -0.015969578 0.016414726 0.043674476
-0.0044860225 -0.00942207 0.014793008 0.011514658 -0.0035004707 0.0005521778 -0.0086892545 0.0073911916
0.009380685 0.007639665
00000000: 384f 953c 80a4 85ba c5a2 513c 28ed dd3b
00000010: 9e7f 06bd 8f9f 943b a637 153b 5bc9 9d3b
00000020: 04e5 53b9 a389 38bb dff9 63ba cd5f e8bb
00000030: 50fb 12bc a401 a33b 2182 46bc 40f8 653c
00000040: 490e 8e3b 0951 ce3b 9c07 b83b f8fa 83bb
00000050: e2e3 32bc 0a0f 0aba 5523 0f3d d07b a33c
00000060: 1b14 363c 0272 383b efe5 4abb 08a9 9339
00000070: 08be d83b d209 a93b 8f9b 303a 8368 dcba
00000080: 2671 a1bb 1f0a 273a a368 063d c7bf 433c
00000090: df54 673b a2d2 82bc 2d78 863c 02e4 323d
000000a0: 7cff 92bb 075f 1abc 5f5e 723c faa7 3c3c
000000b0: 2768 65bb 06c0 103a 605d 0ebc cf31 f23b
000000c0: 72b1 193c 2856 fa3b

LSTMLayerList.0.br f4 [50]
0.006710791 0.06279202 -0.009703214 0.0034501976 0.0028498601 0.0046485243 -0.0026466176 0.0012534056
-0.014256765 0.003392392 0.030017007 0.021126807 -0.0033527133 0.011849147 -0.017764656 0.004030387
-0.0053153383 -0.012101229 0.028583588 -0.0041342843 -0.002933901 -0.010724762 -0.017229823 0.0037583257
-0.015046911 0.012424713 -0.007246233 0.0005714632 0.00064196787 -0.0036225498 0.0066290405 0.0028011852
0.020376265 0.0066901757 0.03628708 0.0009597935 -0.006317675 0.007232086 0.018585738 0.0046776515
0.004736931 -0.021328226 0.011138093 0.0024425855 -0.011005139 0.035636805 -0.00082286255 0.012240428
0.008452715 0.001142021
00000000: 32e6 db3b 1a99 803d 3bfa 1ebc b61c 623b
00000010: b8c4 3a3b a652 983b e072 2dbb 5049 a43a
00000020: 3595 69bc e552 5e3b 3ae6 f53c 2012 ad3c
00000030: 32b9 5bbb ed22 423c 2f87 91bc 5611 843b
00000040: 4a2c aebb 3c44 46bc 2128 ea3c e478 87bb
00000050: b146 40bb eab6 2fbc 8f25 8dbc 3e4e 763b
00000060: 5287 76bc 0691 4b3c cf71 edbb 3fce 153a
00000070: bc49 283a 4d68 6dbb 6c38 d93b 1794 373b
00000080: 20ec a63c 4339 db3b c3a1 143d a79a 7b3a
00000090: 8004 cfbb 22fb ec3b 1e41 983c fc46 993b
000000a0: 4238 9b3b 88b8 aebc 8c7c 363c c913 203b
000000b0: e64e 34bc e6f7 113d 5fb5 57ba 138c 483c
000000c0: 427d 0a3c deaf 953a

LSTMLayerList.0.bh f4 [50]
0.0016668625 0.007921941 -0.04203135 -6.019673e-05 0.0047259117 0.012851061 0.026581557 0.020215504
0.004051328 -0.0013666276 0.004336733 0.00011306597 -0.085670166 -0.009053601 -0.09664687 0.0008519985
-0.0067327935 -0.011675442 0.0022219752 -0.004638171 0.015114132 0.0024730081 -0.0017258199 -0.006529551
-0.0007752786 -0.02907544 -0.050280772 -0.005311627 -0.006871722 0.0038196791 -0.015499212 0.02165284
-0.04292289 -0.0039796997 0.00758769 -0.10275573 -0.0065595615 0.013553553 -0.008320557 0.020413747
-0.005419719 -0.0068643447 0.0036381881 0.0016868802 0.004671528 0.0040996326 -0.06942257 -0.01670904
-0.007526895 -0.0031295202
00000000: a07a da3a 07cb 013c 1129 2cbd bf7b 7cb8
00000010: d2db 9a3b 428d 523c 91c1 d93c fc9a a53c
00000020: 01c1 843b 6a20 b3ba 271b 8e3b d51d ed38
00000030: d773 afbd 8e55 14bc cbee c5bd a758 5f3a
00000040: c49e dcbb 5a4a 3fbc 8f9e 113b ccfb 97bb
00000050: 44a1 773c 3112 223b e834 e2ba d8f5 d5bb
00000060: 113c 4bba 9e2f eebc 36f3 4dbd 280d aebb
00000070: 2f2c e1bb 9553 7a3b 68f0 7dbc 4c61 b13c
00000080: eacf 2fbd 2468 82bb 28a2 f83b 9971 d2bd
00000090: 97f1 d6bb b90f 5e3c f252 08bc bb3a a73c
000000a0: e697 b1bb 4cee e0bb ab6e 6e3b 4f1a dd3a
000000b0: 9e13 993b 3656 863b 6c2d 8ebd 66e1 88bc
000000c0: 2ca4 f6bb a318 4dbb
